saved_model_schema_version: 1
meta_graphs {
  meta_info_def {
    stripped_op_list {
      op {
        name: "Add"
        input_arg {
          name: "x"
          type_attr: "T"
        }
        input_arg {
          name: "y"
          type_attr: "T"
        }
        output_arg {
          name: "z"
          type_attr: "T"
        }
        attr {
          name: "T"
          type: "type"
          allowed_values {
            list {
              type: DT_BFLOAT16
              type: DT_HALF
              type: DT_FLOAT
              type: DT_DOUBLE
              type: DT_UINT8
              type: DT_INT8
              type: DT_INT16
              type: DT_INT32
              type: DT_INT64
              type: DT_COMPLEX64
              type: DT_COMPLEX128
              type: DT_STRING
            }
          }
        }
      }
      op {
        name: "AddN"
        input_arg {
          name: "inputs"
          type_attr: "T"
          number_attr: "N"
        }
        output_arg {
          name: "sum"
          type_attr: "T"
        }
        attr {
          name: "N"
          type: "int"
          has_minimum: true
          minimum: 1
        }
        attr {
          name: "T"
          type: "type"
          allowed_values {
            list {
              type: DT_FLOAT
              type: DT_DOUBLE
              type: DT_INT32
              type: DT_UINT8
              type: DT_INT16
              type: DT_INT8
              type: DT_COMPLEX64
              type: DT_INT64
              type: DT_QINT8
              type: DT_QUINT8
              type: DT_QINT32
              type: DT_BFLOAT16
              type: DT_UINT16
              type: DT_COMPLEX128
              type: DT_HALF
              type: DT_UINT32
              type: DT_UINT64
              type: DT_VARIANT
            }
          }
        }
        is_aggregate: true
        is_commutative: true
      }
      op {
        name: "ArgMax"
        input_arg {
          name: "input"
          type_attr: "T"
        }
        input_arg {
          name: "dimension"
          type_attr: "Tidx"
        }
        output_arg {
          name: "output"
          type_attr: "output_type"
        }
        attr {
          name: "T"
          type: "type"
          allowed_values {
            list {
              type: DT_FLOAT
              type: DT_DOUBLE
              type: DT_INT32
              type: DT_UINT8
              type: DT_INT16
              type: DT_INT8
              type: DT_COMPLEX64
              type: DT_INT64
              type: DT_QINT8
              type: DT_QUINT8
              type: DT_QINT32
              type: DT_BFLOAT16
              type: DT_UINT16
              type: DT_COMPLEX128
              type: DT_HALF
              type: DT_UINT32
              type: DT_UINT64
            }
          }
        }
        attr {
          name: "Tidx"
          type: "type"
          default_value {
            type: DT_INT32
          }
          allowed_values {
            list {
              type: DT_INT32
              type: DT_INT64
            }
          }
        }
        attr {
          name: "output_type"
          type: "type"
          default_value {
            type: DT_INT64
          }
          allowed_values {
            list {
              type: DT_INT32
              type: DT_INT64
            }
          }
        }
      }
      op {
        name: "Assert"
        input_arg {
          name: "condition"
          type: DT_BOOL
        }
        input_arg {
          name: "data"
          type_list_attr: "T"
        }
        attr {
          name: "T"
          type: "list(type)"
          has_minimum: true
          minimum: 1
        }
        attr {
          name: "summarize"
          type: "int"
          default_value {
            i: 3
          }
        }
        is_stateful: true
      }
      op {
        name: "AssignAddVariableOp"
        input_arg {
          name: "resource"
          type: DT_RESOURCE
        }
        input_arg {
          name: "value"
          type_attr: "dtype"
        }
        attr {
          name: "dtype"
          type: "type"
        }
        is_stateful: true
      }
      op {
        name: "AssignVariableOp"
        input_arg {
          name: "resource"
          type: DT_RESOURCE
        }
        input_arg {
          name: "value"
          type_attr: "dtype"
        }
        attr {
          name: "dtype"
          type: "type"
        }
        is_stateful: true
      }
      op {
        name: "BiasAdd"
        input_arg {
          name: "value"
          type_attr: "T"
        }
        input_arg {
          name: "bias"
          type_attr: "T"
        }
        output_arg {
          name: "output"
          type_attr: "T"
        }
        attr {
          name: "T"
          type: "type"
          allowed_values {
            list {
              type: DT_FLOAT
              type: DT_DOUBLE
              type: DT_INT32
              type: DT_UINT8
              type: DT_INT16
              type: DT_INT8
              type: DT_COMPLEX64
              type: DT_INT64
              type: DT_QINT8
              type: DT_QUINT8
              type: DT_QINT32
              type: DT_BFLOAT16
              type: DT_UINT16
              type: DT_COMPLEX128
              type: DT_HALF
              type: DT_UINT32
              type: DT_UINT64
            }
          }
        }
        attr {
          name: "data_format"
          type: "string"
          default_value {
            s: "NHWC"
          }
          allowed_values {
            list {
              s: "NHWC"
              s: "NCHW"
            }
          }
        }
      }
      op {
        name: "BiasAddGrad"
        input_arg {
          name: "out_backprop"
          type_attr: "T"
        }
        output_arg {
          name: "output"
          type_attr: "T"
        }
        attr {
          name: "T"
          type: "type"
          allowed_values {
            list {
              type: DT_FLOAT
              type: DT_DOUBLE
              type: DT_INT32
              type: DT_UINT8
              type: DT_INT16
              type: DT_INT8
              type: DT_COMPLEX64
              type: DT_INT64
              type: DT_QINT8
              type: DT_QUINT8
              type: DT_QINT32
              type: DT_BFLOAT16
              type: DT_UINT16
              type: DT_COMPLEX128
              type: DT_HALF
              type: DT_UINT32
              type: DT_UINT64
            }
          }
        }
        attr {
          name: "data_format"
          type: "string"
          default_value {
            s: "NHWC"
          }
          allowed_values {
            list {
              s: "NHWC"
              s: "NCHW"
            }
          }
        }
      }
      op {
        name: "BroadcastGradientArgs"
        input_arg {
          name: "s0"
          type_attr: "T"
        }
        input_arg {
          name: "s1"
          type_attr: "T"
        }
        output_arg {
          name: "r0"
          type_attr: "T"
        }
        output_arg {
          name: "r1"
          type_attr: "T"
        }
        attr {
          name: "T"
          type: "type"
          default_value {
            type: DT_INT32
          }
          allowed_values {
            list {
              type: DT_INT32
              type: DT_INT64
            }
          }
        }
      }
      op {
        name: "Cast"
        input_arg {
          name: "x"
          type_attr: "SrcT"
        }
        output_arg {
          name: "y"
          type_attr: "DstT"
        }
        attr {
          name: "SrcT"
          type: "type"
        }
        attr {
          name: "DstT"
          type: "type"
        }
        attr {
          name: "Truncate"
          type: "bool"
          default_value {
            b: false
          }
        }
      }
      op {
        name: "ConcatV2"
        input_arg {
          name: "values"
          type_attr: "T"
          number_attr: "N"
        }
        input_arg {
          name: "axis"
          type_attr: "Tidx"
        }
        output_arg {
          name: "output"
          type_attr: "T"
        }
        attr {
          name: "N"
          type: "int"
          has_minimum: true
          minimum: 2
        }
        attr {
          name: "T"
          type: "type"
        }
        attr {
          name: "Tidx"
          type: "type"
          default_value {
            type: DT_INT32
          }
          allowed_values {
            list {
              type: DT_INT32
              type: DT_INT64
            }
          }
        }
      }
      op {
        name: "Const"
        output_arg {
          name: "output"
          type_attr: "dtype"
        }
        attr {
          name: "value"
          type: "tensor"
        }
        attr {
          name: "dtype"
          type: "type"
        }
      }
      op {
        name: "Conv2D"
        input_arg {
          name: "input"
          type_attr: "T"
        }
        input_arg {
          name: "filter"
          type_attr: "T"
        }
        output_arg {
          name: "output"
          type_attr: "T"
        }
        attr {
          name: "T"
          type: "type"
          allowed_values {
            list {
              type: DT_HALF
              type: DT_BFLOAT16
              type: DT_FLOAT
              type: DT_DOUBLE
            }
          }
        }
        attr {
          name: "strides"
          type: "list(int)"
        }
        attr {
          name: "use_cudnn_on_gpu"
          type: "bool"
          default_value {
            b: true
          }
        }
        attr {
          name: "padding"
          type: "string"
          allowed_values {
            list {
              s: "SAME"
              s: "VALID"
              s: "EXPLICIT"
            }
          }
        }
        attr {
          name: "explicit_paddings"
          type: "list(int)"
          default_value {
            list {
            }
          }
        }
        attr {
          name: "data_format"
          type: "string"
          default_value {
            s: "NHWC"
          }
          allowed_values {
            list {
              s: "NHWC"
              s: "NCHW"
            }
          }
        }
        attr {
          name: "dilations"
          type: "list(int)"
          default_value {
            list {
              i: 1
              i: 1
              i: 1
              i: 1
            }
          }
        }
      }
      op {
        name: "Conv2DBackpropFilter"
        input_arg {
          name: "input"
          type_attr: "T"
        }
        input_arg {
          name: "filter_sizes"
          type: DT_INT32
        }
        input_arg {
          name: "out_backprop"
          type_attr: "T"
        }
        output_arg {
          name: "output"
          type_attr: "T"
        }
        attr {
          name: "T"
          type: "type"
          allowed_values {
            list {
              type: DT_HALF
              type: DT_BFLOAT16
              type: DT_FLOAT
              type: DT_DOUBLE
            }
          }
        }
        attr {
          name: "strides"
          type: "list(int)"
        }
        attr {
          name: "use_cudnn_on_gpu"
          type: "bool"
          default_value {
            b: true
          }
        }
        attr {
          name: "padding"
          type: "string"
          allowed_values {
            list {
              s: "SAME"
              s: "VALID"
              s: "EXPLICIT"
            }
          }
        }
        attr {
          name: "explicit_paddings"
          type: "list(int)"
          default_value {
            list {
            }
          }
        }
        attr {
          name: "data_format"
          type: "string"
          default_value {
            s: "NHWC"
          }
          allowed_values {
            list {
              s: "NHWC"
              s: "NCHW"
            }
          }
        }
        attr {
          name: "dilations"
          type: "list(int)"
          default_value {
            list {
              i: 1
              i: 1
              i: 1
              i: 1
            }
          }
        }
      }
      op {
        name: "Conv2DBackpropInput"
        input_arg {
          name: "input_sizes"
          type: DT_INT32
        }
        input_arg {
          name: "filter"
          type_attr: "T"
        }
        input_arg {
          name: "out_backprop"
          type_attr: "T"
        }
        output_arg {
          name: "output"
          type_attr: "T"
        }
        attr {
          name: "T"
          type: "type"
          allowed_values {
            list {
              type: DT_HALF
              type: DT_BFLOAT16
              type: DT_FLOAT
              type: DT_DOUBLE
            }
          }
        }
        attr {
          name: "strides"
          type: "list(int)"
        }
        attr {
          name: "use_cudnn_on_gpu"
          type: "bool"
          default_value {
            b: true
          }
        }
        attr {
          name: "padding"
          type: "string"
          allowed_values {
            list {
              s: "SAME"
              s: "VALID"
              s: "EXPLICIT"
            }
          }
        }
        attr {
          name: "explicit_paddings"
          type: "list(int)"
          default_value {
            list {
            }
          }
        }
        attr {
          name: "data_format"
          type: "string"
          default_value {
            s: "NHWC"
          }
          allowed_values {
            list {
              s: "NHWC"
              s: "NCHW"
            }
          }
        }
        attr {
          name: "dilations"
          type: "list(int)"
          default_value {
            list {
              i: 1
              i: 1
              i: 1
              i: 1
            }
          }
        }
      }
      op {
        name: "DenseToDenseSetOperation"
        input_arg {
          name: "set1"
          type_attr: "T"
        }
        input_arg {
          name: "set2"
          type_attr: "T"
        }
        output_arg {
          name: "result_indices"
          type: DT_INT64
        }
        output_arg {
          name: "result_values"
          type_attr: "T"
        }
        output_arg {
          name: "result_shape"
          type: DT_INT64
        }
        attr {
          name: "set_operation"
          type: "string"
        }
        attr {
          name: "validate_indices"
          type: "bool"
          default_value {
            b: true
          }
        }
        attr {
          name: "T"
          type: "type"
          allowed_values {
            list {
              type: DT_INT8
              type: DT_INT16
              type: DT_INT32
              type: DT_INT64
              type: DT_UINT8
              type: DT_UINT16
              type: DT_STRING
            }
          }
        }
      }
      op {
        name: "DivNoNan"
        input_arg {
          name: "x"
          type_attr: "T"
        }
        input_arg {
          name: "y"
          type_attr: "T"
        }
        output_arg {
          name: "z"
          type_attr: "T"
        }
        attr {
          name: "T"
          type: "type"
          allowed_values {
            list {
              type: DT_HALF
              type: DT_FLOAT
              type: DT_DOUBLE
              type: DT_COMPLEX64
              type: DT_COMPLEX128
            }
          }
        }
      }
      op {
        name: "Equal"
        input_arg {
          name: "x"
          type_attr: "T"
        }
        input_arg {
          name: "y"
          type_attr: "T"
        }
        output_arg {
          name: "z"
          type: DT_BOOL
        }
        attr {
          name: "T"
          type: "type"
          allowed_values {
            list {
              type: DT_BFLOAT16
              type: DT_HALF
              type: DT_FLOAT
              type: DT_DOUBLE
              type: DT_UINT8
              type: DT_INT8
              type: DT_INT16
              type: DT_INT32
              type: DT_INT64
              type: DT_COMPLEX64
              type: DT_QUINT8
              type: DT_QINT8
              type: DT_QINT32
              type: DT_STRING
              type: DT_BOOL
              type: DT_COMPLEX128
            }
          }
        }
        is_commutative: true
      }
      op {
        name: "ExpandDims"
        input_arg {
          name: "input"
          type_attr: "T"
        }
        input_arg {
          name: "dim"
          type_attr: "Tdim"
        }
        output_arg {
          name: "output"
          type_attr: "T"
        }
        attr {
          name: "T"
          type: "type"
        }
        attr {
          name: "Tdim"
          type: "type"
          default_value {
            type: DT_INT32
          }
          allowed_values {
            list {
              type: DT_INT32
              type: DT_INT64
            }
          }
        }
      }
      op {
        name: "Fill"
        input_arg {
          name: "dims"
          type_attr: "index_type"
        }
        input_arg {
          name: "value"
          type_attr: "T"
        }
        output_arg {
          name: "output"
          type_attr: "T"
        }
        attr {
          name: "T"
          type: "type"
        }
        attr {
          name: "index_type"
          type: "type"
          default_value {
            type: DT_INT32
          }
          allowed_values {
            list {
              type: DT_INT32
              type: DT_INT64
            }
          }
        }
      }
      op {
        name: "GreaterEqual"
        input_arg {
          name: "x"
          type_attr: "T"
        }
        input_arg {
          name: "y"
          type_attr: "T"
        }
        output_arg {
          name: "z"
          type: DT_BOOL
        }
        attr {
          name: "T"
          type: "type"
          allowed_values {
            list {
              type: DT_FLOAT
              type: DT_DOUBLE
              type: DT_INT32
              type: DT_UINT8
              type: DT_INT16
              type: DT_INT8
              type: DT_INT64
              type: DT_BFLOAT16
              type: DT_UINT16
              type: DT_HALF
              type: DT_UINT32
              type: DT_UINT64
            }
          }
        }
      }
      op {
        name: "Identity"
        input_arg {
          name: "input"
          type_attr: "T"
        }
        output_arg {
          name: "output"
          type_attr: "T"
        }
        attr {
          name: "T"
          type: "type"
        }
      }
      op {
        name: "LogSoftmax"
        input_arg {
          name: "logits"
          type_attr: "T"
        }
        output_arg {
          name: "logsoftmax"
          type_attr: "T"
        }
        attr {
          name: "T"
          type: "type"
          allowed_values {
            list {
              type: DT_HALF
              type: DT_BFLOAT16
              type: DT_FLOAT
              type: DT_DOUBLE
            }
          }
        }
      }
      op {
        name: "MatMul"
        input_arg {
          name: "a"
          type_attr: "T"
        }
        input_arg {
          name: "b"
          type_attr: "T"
        }
        output_arg {
          name: "product"
          type_attr: "T"
        }
        attr {
          name: "transpose_a"
          type: "bool"
          default_value {
            b: false
          }
        }
        attr {
          name: "transpose_b"
          type: "bool"
          default_value {
            b: false
          }
        }
        attr {
          name: "T"
          type: "type"
          allowed_values {
            list {
              type: DT_BFLOAT16
              type: DT_HALF
              type: DT_FLOAT
              type: DT_DOUBLE
              type: DT_INT32
              type: DT_INT64
              type: DT_COMPLEX64
              type: DT_COMPLEX128
            }
          }
        }
      }
      op {
        name: "MaxPool"
        input_arg {
          name: "input"
          type_attr: "T"
        }
        output_arg {
          name: "output"
          type_attr: "T"
        }
        attr {
          name: "T"
          type: "type"
          default_value {
            type: DT_FLOAT
          }
          allowed_values {
            list {
              type: DT_HALF
              type: DT_BFLOAT16
              type: DT_FLOAT
              type: DT_DOUBLE
              type: DT_INT32
              type: DT_INT64
              type: DT_UINT8
              type: DT_INT16
              type: DT_INT8
              type: DT_UINT16
              type: DT_QINT8
            }
          }
        }
        attr {
          name: "ksize"
          type: "list(int)"
          has_minimum: true
          minimum: 4
        }
        attr {
          name: "strides"
          type: "list(int)"
          has_minimum: true
          minimum: 4
        }
        attr {
          name: "padding"
          type: "string"
          allowed_values {
            list {
              s: "SAME"
              s: "VALID"
            }
          }
        }
        attr {
          name: "data_format"
          type: "string"
          default_value {
            s: "NHWC"
          }
          allowed_values {
            list {
              s: "NHWC"
              s: "NCHW"
              s: "NCHW_VECT_C"
            }
          }
        }
      }
      op {
        name: "MaxPoolGrad"
        input_arg {
          name: "orig_input"
          type_attr: "T"
        }
        input_arg {
          name: "orig_output"
          type_attr: "T"
        }
        input_arg {
          name: "grad"
          type_attr: "T"
        }
        output_arg {
          name: "output"
          type_attr: "T"
        }
        attr {
          name: "ksize"
          type: "list(int)"
          has_minimum: true
          minimum: 4
        }
        attr {
          name: "strides"
          type: "list(int)"
          has_minimum: true
          minimum: 4
        }
        attr {
          name: "padding"
          type: "string"
          allowed_values {
            list {
              s: "SAME"
              s: "VALID"
            }
          }
        }
        attr {
          name: "data_format"
          type: "string"
          default_value {
            s: "NHWC"
          }
          allowed_values {
            list {
              s: "NHWC"
              s: "NCHW"
            }
          }
        }
        attr {
          name: "T"
          type: "type"
          default_value {
            type: DT_FLOAT
          }
          allowed_values {
            list {
              type: DT_FLOAT
              type: DT_DOUBLE
              type: DT_INT32
              type: DT_UINT8
              type: DT_INT16
              type: DT_INT8
              type: DT_INT64
              type: DT_BFLOAT16
              type: DT_UINT16
              type: DT_HALF
              type: DT_UINT32
              type: DT_UINT64
            }
          }
        }
      }
      op {
        name: "Merge"
        input_arg {
          name: "inputs"
          type_attr: "T"
          number_attr: "N"
        }
        output_arg {
          name: "output"
          type_attr: "T"
        }
        output_arg {
          name: "value_index"
          type: DT_INT32
        }
        attr {
          name: "T"
          type: "type"
        }
        attr {
          name: "N"
          type: "int"
          has_minimum: true
          minimum: 1
        }
      }
      op {
        name: "MergeV2Checkpoints"
        input_arg {
          name: "checkpoint_prefixes"
          type: DT_STRING
        }
        input_arg {
          name: "destination_prefix"
          type: DT_STRING
        }
        attr {
          name: "delete_old_dirs"
          type: "bool"
          default_value {
            b: true
          }
        }
        is_stateful: true
      }
      op {
        name: "Mul"
        input_arg {
          name: "x"
          type_attr: "T"
        }
        input_arg {
          name: "y"
          type_attr: "T"
        }
        output_arg {
          name: "z"
          type_attr: "T"
        }
        attr {
          name: "T"
          type: "type"
          allowed_values {
            list {
              type: DT_BFLOAT16
              type: DT_HALF
              type: DT_FLOAT
              type: DT_DOUBLE
              type: DT_UINT8
              type: DT_INT8
              type: DT_UINT16
              type: DT_INT16
              type: DT_INT32
              type: DT_INT64
              type: DT_COMPLEX64
              type: DT_COMPLEX128
            }
          }
        }
        is_commutative: true
      }
      op {
        name: "Neg"
        input_arg {
          name: "x"
          type_attr: "T"
        }
        output_arg {
          name: "y"
          type_attr: "T"
        }
        attr {
          name: "T"
          type: "type"
          allowed_values {
            list {
              type: DT_BFLOAT16
              type: DT_HALF
              type: DT_FLOAT
              type: DT_DOUBLE
              type: DT_INT32
              type: DT_INT64
              type: DT_COMPLEX64
              type: DT_COMPLEX128
            }
          }
        }
      }
      op {
        name: "NoOp"
      }
      op {
        name: "Pack"
        input_arg {
          name: "values"
          type_attr: "T"
          number_attr: "N"
        }
        output_arg {
          name: "output"
          type_attr: "T"
        }
        attr {
          name: "N"
          type: "int"
          has_minimum: true
          minimum: 1
        }
        attr {
          name: "T"
          type: "type"
        }
        attr {
          name: "axis"
          type: "int"
          default_value {
            i: 0
          }
        }
      }
      op {
        name: "Placeholder"
        output_arg {
          name: "output"
          type_attr: "dtype"
        }
        attr {
          name: "dtype"
          type: "type"
        }
        attr {
          name: "shape"
          type: "shape"
          default_value {
            shape {
              unknown_rank: true
            }
          }
        }
      }
      op {
        name: "PlaceholderWithDefault"
        input_arg {
          name: "input"
          type_attr: "dtype"
        }
        output_arg {
          name: "output"
          type_attr: "dtype"
        }
        attr {
          name: "dtype"
          type: "type"
        }
        attr {
          name: "shape"
          type: "shape"
        }
      }
      op {
        name: "Pow"
        input_arg {
          name: "x"
          type_attr: "T"
        }
        input_arg {
          name: "y"
          type_attr: "T"
        }
        output_arg {
          name: "z"
          type_attr: "T"
        }
        attr {
          name: "T"
          type: "type"
          allowed_values {
            list {
              type: DT_BFLOAT16
              type: DT_FLOAT
              type: DT_HALF
              type: DT_DOUBLE
              type: DT_INT32
              type: DT_INT64
              type: DT_COMPLEX64
              type: DT_COMPLEX128
            }
          }
        }
      }
      op {
        name: "RandomUniform"
        input_arg {
          name: "shape"
          type_attr: "T"
        }
        output_arg {
          name: "output"
          type_attr: "dtype"
        }
        attr {
          name: "seed"
          type: "int"
          default_value {
            i: 0
          }
        }
        attr {
          name: "seed2"
          type: "int"
          default_value {
            i: 0
          }
        }
        attr {
          name: "dtype"
          type: "type"
          allowed_values {
            list {
              type: DT_HALF
              type: DT_BFLOAT16
              type: DT_FLOAT
              type: DT_DOUBLE
            }
          }
        }
        attr {
          name: "T"
          type: "type"
          allowed_values {
            list {
              type: DT_INT32
              type: DT_INT64
            }
          }
        }
        is_stateful: true
      }
      op {
        name: "ReadVariableOp"
        input_arg {
          name: "resource"
          type: DT_RESOURCE
        }
        output_arg {
          name: "value"
          type_attr: "dtype"
        }
        attr {
          name: "dtype"
          type: "type"
        }
        is_stateful: true
      }
      op {
        name: "RealDiv"
        input_arg {
          name: "x"
          type_attr: "T"
        }
        input_arg {
          name: "y"
          type_attr: "T"
        }
        output_arg {
          name: "z"
          type_attr: "T"
        }
        attr {
          name: "T"
          type: "type"
          allowed_values {
            list {
              type: DT_BFLOAT16
              type: DT_HALF
              type: DT_FLOAT
              type: DT_DOUBLE
              type: DT_UINT8
              type: DT_INT8
              type: DT_UINT16
              type: DT_INT16
              type: DT_INT32
              type: DT_INT64
              type: DT_COMPLEX64
              type: DT_COMPLEX128
            }
          }
        }
      }
      op {
        name: "Relu"
        input_arg {
          name: "features"
          type_attr: "T"
        }
        output_arg {
          name: "activations"
          type_attr: "T"
        }
        attr {
          name: "T"
          type: "type"
          allowed_values {
            list {
              type: DT_FLOAT
              type: DT_DOUBLE
              type: DT_INT32
              type: DT_UINT8
              type: DT_INT16
              type: DT_INT8
              type: DT_INT64
              type: DT_BFLOAT16
              type: DT_UINT16
              type: DT_HALF
              type: DT_UINT32
              type: DT_UINT64
              type: DT_QINT8
            }
          }
        }
      }
      op {
        name: "ReluGrad"
        input_arg {
          name: "gradients"
          type_attr: "T"
        }
        input_arg {
          name: "features"
          type_attr: "T"
        }
        output_arg {
          name: "backprops"
          type_attr: "T"
        }
        attr {
          name: "T"
          type: "type"
          allowed_values {
            list {
              type: DT_FLOAT
              type: DT_DOUBLE
              type: DT_INT32
              type: DT_UINT8
              type: DT_INT16
              type: DT_INT8
              type: DT_INT64
              type: DT_BFLOAT16
              type: DT_UINT16
              type: DT_HALF
              type: DT_UINT32
              type: DT_UINT64
            }
          }
        }
      }
      op {
        name: "Reshape"
        input_arg {
          name: "tensor"
          type_attr: "T"
        }
        input_arg {
          name: "shape"
          type_attr: "Tshape"
        }
        output_arg {
          name: "output"
          type_attr: "T"
        }
        attr {
          name: "T"
          type: "type"
        }
        attr {
          name: "Tshape"
          type: "type"
          default_value {
            type: DT_INT32
          }
          allowed_values {
            list {
              type: DT_INT32
              type: DT_INT64
            }
          }
        }
      }
      op {
        name: "ResourceApplyAdam"
        input_arg {
          name: "var"
          type: DT_RESOURCE
        }
        input_arg {
          name: "m"
          type: DT_RESOURCE
        }
        input_arg {
          name: "v"
          type: DT_RESOURCE
        }
        input_arg {
          name: "beta1_power"
          type_attr: "T"
        }
        input_arg {
          name: "beta2_power"
          type_attr: "T"
        }
        input_arg {
          name: "lr"
          type_attr: "T"
        }
        input_arg {
          name: "beta1"
          type_attr: "T"
        }
        input_arg {
          name: "beta2"
          type_attr: "T"
        }
        input_arg {
          name: "epsilon"
          type_attr: "T"
        }
        input_arg {
          name: "grad"
          type_attr: "T"
        }
        attr {
          name: "T"
          type: "type"
          allowed_values {
            list {
              type: DT_FLOAT
              type: DT_DOUBLE
              type: DT_INT32
              type: DT_UINT8
              type: DT_INT16
              type: DT_INT8
              type: DT_COMPLEX64
              type: DT_INT64
              type: DT_QINT8
              type: DT_QUINT8
              type: DT_QINT32
              type: DT_BFLOAT16
              type: DT_UINT16
              type: DT_COMPLEX128
              type: DT_HALF
              type: DT_UINT32
              type: DT_UINT64
            }
          }
        }
        attr {
          name: "use_locking"
          type: "bool"
          default_value {
            b: false
          }
        }
        attr {
          name: "use_nesterov"
          type: "bool"
          default_value {
            b: false
          }
        }
        is_stateful: true
      }
      op {
        name: "RestoreV2"
        input_arg {
          name: "prefix"
          type: DT_STRING
        }
        input_arg {
          name: "tensor_names"
          type: DT_STRING
        }
        input_arg {
          name: "shape_and_slices"
          type: DT_STRING
        }
        output_arg {
          name: "tensors"
          type_list_attr: "dtypes"
        }
        attr {
          name: "dtypes"
          type: "list(type)"
          has_minimum: true
          minimum: 1
        }
        is_stateful: true
      }
      op {
        name: "SaveV2"
        input_arg {
          name: "prefix"
          type: DT_STRING
        }
        input_arg {
          name: "tensor_names"
          type: DT_STRING
        }
        input_arg {
          name: "shape_and_slices"
          type: DT_STRING
        }
        input_arg {
          name: "tensors"
          type_list_attr: "dtypes"
        }
        attr {
          name: "dtypes"
          type: "list(type)"
          has_minimum: true
          minimum: 1
        }
        is_stateful: true
      }
      op {
        name: "Shape"
        input_arg {
          name: "input"
          type_attr: "T"
        }
        output_arg {
          name: "output"
          type_attr: "out_type"
        }
        attr {
          name: "T"
          type: "type"
        }
        attr {
          name: "out_type"
          type: "type"
          default_value {
            type: DT_INT32
          }
          allowed_values {
            list {
              type: DT_INT32
              type: DT_INT64
            }
          }
        }
      }
      op {
        name: "ShapeN"
        input_arg {
          name: "input"
          type_attr: "T"
          number_attr: "N"
        }
        output_arg {
          name: "output"
          type_attr: "out_type"
          number_attr: "N"
        }
        attr {
          name: "N"
          type: "int"
          has_minimum: true
          minimum: 1
        }
        attr {
          name: "T"
          type: "type"
        }
        attr {
          name: "out_type"
          type: "type"
          default_value {
            type: DT_INT32
          }
          allowed_values {
            list {
              type: DT_INT32
              type: DT_INT64
            }
          }
        }
      }
      op {
        name: "ShardedFilename"
        input_arg {
          name: "basename"
          type: DT_STRING
        }
        input_arg {
          name: "shard"
          type: DT_INT32
        }
        input_arg {
          name: "num_shards"
          type: DT_INT32
        }
        output_arg {
          name: "filename"
          type: DT_STRING
        }
      }
      op {
        name: "Size"
        input_arg {
          name: "input"
          type_attr: "T"
        }
        output_arg {
          name: "output"
          type_attr: "out_type"
        }
        attr {
          name: "T"
          type: "type"
        }
        attr {
          name: "out_type"
          type: "type"
          default_value {
            type: DT_INT32
          }
          allowed_values {
            list {
              type: DT_INT32
              type: DT_INT64
            }
          }
        }
      }
      op {
        name: "Slice"
        input_arg {
          name: "input"
          type_attr: "T"
        }
        input_arg {
          name: "begin"
          type_attr: "Index"
        }
        input_arg {
          name: "size"
          type_attr: "Index"
        }
        output_arg {
          name: "output"
          type_attr: "T"
        }
        attr {
          name: "T"
          type: "type"
        }
        attr {
          name: "Index"
          type: "type"
          allowed_values {
            list {
              type: DT_INT32
              type: DT_INT64
            }
          }
        }
      }
      op {
        name: "Softmax"
        input_arg {
          name: "logits"
          type_attr: "T"
        }
        output_arg {
          name: "softmax"
          type_attr: "T"
        }
        attr {
          name: "T"
          type: "type"
          allowed_values {
            list {
              type: DT_HALF
              type: DT_BFLOAT16
              type: DT_FLOAT
              type: DT_DOUBLE
            }
          }
        }
      }
      op {
        name: "SoftmaxCrossEntropyWithLogits"
        input_arg {
          name: "features"
          type_attr: "T"
        }
        input_arg {
          name: "labels"
          type_attr: "T"
        }
        output_arg {
          name: "loss"
          type_attr: "T"
        }
        output_arg {
          name: "backprop"
          type_attr: "T"
        }
        attr {
          name: "T"
          type: "type"
          allowed_values {
            list {
              type: DT_HALF
              type: DT_BFLOAT16
              type: DT_FLOAT
              type: DT_DOUBLE
            }
          }
        }
      }
      op {
        name: "StridedSlice"
        input_arg {
          name: "input"
          type_attr: "T"
        }
        input_arg {
          name: "begin"
          type_attr: "Index"
        }
        input_arg {
          name: "end"
          type_attr: "Index"
        }
        input_arg {
          name: "strides"
          type_attr: "Index"
        }
        output_arg {
          name: "output"
          type_attr: "T"
        }
        attr {
          name: "T"
          type: "type"
        }
        attr {
          name: "Index"
          type: "type"
          allowed_values {
            list {
              type: DT_INT32
              type: DT_INT64
            }
          }
        }
        attr {
          name: "begin_mask"
          type: "int"
          default_value {
            i: 0
          }
        }
        attr {
          name: "end_mask"
          type: "int"
          default_value {
            i: 0
          }
        }
        attr {
          name: "ellipsis_mask"
          type: "int"
          default_value {
            i: 0
          }
        }
        attr {
          name: "new_axis_mask"
          type: "int"
          default_value {
            i: 0
          }
        }
        attr {
          name: "shrink_axis_mask"
          type: "int"
          default_value {
            i: 0
          }
        }
      }
      op {
        name: "StringJoin"
        input_arg {
          name: "inputs"
          type: DT_STRING
          number_attr: "N"
        }
        output_arg {
          name: "output"
          type: DT_STRING
        }
        attr {
          name: "N"
          type: "int"
          has_minimum: true
          minimum: 1
        }
        attr {
          name: "separator"
          type: "string"
          default_value {
            s: ""
          }
        }
      }
      op {
        name: "Sub"
        input_arg {
          name: "x"
          type_attr: "T"
        }
        input_arg {
          name: "y"
          type_attr: "T"
        }
        output_arg {
          name: "z"
          type_attr: "T"
        }
        attr {
          name: "T"
          type: "type"
          allowed_values {
            list {
              type: DT_BFLOAT16
              type: DT_HALF
              type: DT_FLOAT
              type: DT_DOUBLE
              type: DT_UINT8
              type: DT_INT8
              type: DT_UINT16
              type: DT_INT16
              type: DT_INT32
              type: DT_INT64
              type: DT_COMPLEX64
              type: DT_COMPLEX128
            }
          }
        }
      }
      op {
        name: "Sum"
        input_arg {
          name: "input"
          type_attr: "T"
        }
        input_arg {
          name: "reduction_indices"
          type_attr: "Tidx"
        }
        output_arg {
          name: "output"
          type_attr: "T"
        }
        attr {
          name: "keep_dims"
          type: "bool"
          default_value {
            b: false
          }
        }
        attr {
          name: "T"
          type: "type"
          allowed_values {
            list {
              type: DT_FLOAT
              type: DT_DOUBLE
              type: DT_INT32
              type: DT_UINT8
              type: DT_INT16
              type: DT_INT8
              type: DT_COMPLEX64
              type: DT_INT64
              type: DT_QINT8
              type: DT_QUINT8
              type: DT_QINT32
              type: DT_BFLOAT16
              type: DT_UINT16
              type: DT_COMPLEX128
              type: DT_HALF
              type: DT_UINT32
              type: DT_UINT64
            }
          }
        }
        attr {
          name: "Tidx"
          type: "type"
          default_value {
            type: DT_INT32
          }
          allowed_values {
            list {
              type: DT_INT32
              type: DT_INT64
            }
          }
        }
      }
      op {
        name: "Switch"
        input_arg {
          name: "data"
          type_attr: "T"
        }
        input_arg {
          name: "pred"
          type: DT_BOOL
        }
        output_arg {
          name: "output_false"
          type_attr: "T"
        }
        output_arg {
          name: "output_true"
          type_attr: "T"
        }
        attr {
          name: "T"
          type: "type"
        }
      }
      op {
        name: "Tile"
        input_arg {
          name: "input"
          type_attr: "T"
        }
        input_arg {
          name: "multiples"
          type_attr: "Tmultiples"
        }
        output_arg {
          name: "output"
          type_attr: "T"
        }
        attr {
          name: "T"
          type: "type"
        }
        attr {
          name: "Tmultiples"
          type: "type"
          default_value {
            type: DT_INT32
          }
          allowed_values {
            list {
              type: DT_INT32
              type: DT_INT64
            }
          }
        }
      }
      op {
        name: "VarHandleOp"
        output_arg {
          name: "resource"
          type: DT_RESOURCE
        }
        attr {
          name: "container"
          type: "string"
          default_value {
            s: ""
          }
        }
        attr {
          name: "shared_name"
          type: "string"
          default_value {
            s: ""
          }
        }
        attr {
          name: "dtype"
          type: "type"
        }
        attr {
          name: "shape"
          type: "shape"
        }
        is_stateful: true
      }
      op {
        name: "VarIsInitializedOp"
        input_arg {
          name: "resource"
          type: DT_RESOURCE
        }
        output_arg {
          name: "is_initialized"
          type: DT_BOOL
        }
        is_stateful: true
      }
      op {
        name: "ZerosLike"
        input_arg {
          name: "x"
          type_attr: "T"
        }
        output_arg {
          name: "y"
          type_attr: "T"
        }
        attr {
          name: "T"
          type: "type"
        }
      }
    }
    tags: "serve"
    tensorflow_version: "1.14.1-dev20190406"
    tensorflow_git_version: "unknown"
  }
  graph_def {
    node {
      name: "init"
      op: "NoOp"
    }
    node {
      name: "input_1"
      op: "Placeholder"
      attr {
        key: "_output_shapes"
        value {
          list {
            shape {
              dim {
                size: -1
              }
              dim {
                size: 28
              }
              dim {
                size: 28
              }
              dim {
                size: 1
              }
            }
          }
        }
      }
      attr {
        key: "dtype"
        value {
          type: DT_FLOAT
        }
      }
      attr {
        key: "shape"
        value {
          shape {
            dim {
              size: -1
            }
            dim {
              size: 28
            }
            dim {
              size: 28
            }
            dim {
              size: 1
            }
          }
        }
      }
    }
    node {
      name: "conv2d/kernel/Initializer/random_uniform/shape"
      op: "Const"
      attr {
        key: "_class"
        value {
          list {
            s: "loc:@conv2d/kernel"
          }
        }
      }
      attr {
        key: "_output_shapes"
        value {
          list {
            shape {
              dim {
                size: 4
              }
            }
          }
        }
      }
      attr {
        key: "dtype"
        value {
          type: DT_INT32
        }
      }
      attr {
        key: "value"
        value {
          tensor {
            dtype: DT_INT32
            tensor_shape {
              dim {
                size: 4
              }
            }
            tensor_content: "\003\000\000\000\003\000\000\000\001\000\000\000\010\000\000\000"
          }
        }
      }
    }
    node {
      name: "conv2d/kernel/Initializer/random_uniform/min"
      op: "Const"
      attr {
        key: "_class"
        value {
          list {
            s: "loc:@conv2d/kernel"
          }
        }
      }
      attr {
        key: "_output_shapes"
        value {
          list {
            shape {
            }
          }
        }
      }
      attr {
        key: "dtype"
        value {
          type: DT_FLOAT
        }
      }
      attr {
        key: "value"
        value {
          tensor {
            dtype: DT_FLOAT
            tensor_shape {
            }
            float_val: -0.27216553688049316
          }
        }
      }
    }
    node {
      name: "conv2d/kernel/Initializer/random_uniform/max"
      op: "Const"
      attr {
        key: "_class"
        value {
          list {
            s: "loc:@conv2d/kernel"
          }
        }
      }
      attr {
        key: "_output_shapes"
        value {
          list {
            shape {
            }
          }
        }
      }
      attr {
        key: "dtype"
        value {
          type: DT_FLOAT
        }
      }
      attr {
        key: "value"
        value {
          tensor {
            dtype: DT_FLOAT
            tensor_shape {
            }
            float_val: 0.27216553688049316
          }
        }
      }
    }
    node {
      name: "conv2d/kernel/Initializer/random_uniform/RandomUniform"
      op: "RandomUniform"
      input: "conv2d/kernel/Initializer/random_uniform/shape"
      attr {
        key: "T"
        value {
          type: DT_INT32
        }
      }
      attr {
        key: "_class"
        value {
          list {
            s: "loc:@conv2d/kernel"
          }
        }
      }
      attr {
        key: "_output_shapes"
        value {
          list {
            shape {
              dim {
                size: 3
              }
              dim {
                size: 3
              }
              dim {
                size: 1
              }
              dim {
                size: 8
              }
            }
          }
        }
      }
      attr {
        key: "dtype"
        value {
          type: DT_FLOAT
        }
      }
      attr {
        key: "seed"
        value {
          i: 0
        }
      }
      attr {
        key: "seed2"
        value {
          i: 0
        }
      }
    }
    node {
      name: "conv2d/kernel/Initializer/random_uniform/sub"
      op: "Sub"
      input: "conv2d/kernel/Initializer/random_uniform/max"
      input: "conv2d/kernel/Initializer/random_uniform/min"
      attr {
        key: "T"
        value {
          type: DT_FLOAT
        }
      }
      attr {
        key: "_class"
        value {
          list {
            s: "loc:@conv2d/kernel"
          }
        }
      }
      attr {
        key: "_output_shapes"
        value {
          list {
            shape {
            }
          }
        }
      }
    }
    node {
      name: "conv2d/kernel/Initializer/random_uniform/mul"
      op: "Mul"
      input: "conv2d/kernel/Initializer/random_uniform/RandomUniform"
      input: "conv2d/kernel/Initializer/random_uniform/sub"
      attr {
        key: "T"
        value {
          type: DT_FLOAT
        }
      }
      attr {
        key: "_class"
        value {
          list {
            s: "loc:@conv2d/kernel"
          }
        }
      }
      attr {
        key: "_output_shapes"
        value {
          list {
            shape {
              dim {
                size: 3
              }
              dim {
                size: 3
              }
              dim {
                size: 1
              }
              dim {
                size: 8
              }
            }
          }
        }
      }
    }
    node {
      name: "conv2d/kernel/Initializer/random_uniform"
      op: "Add"
      input: "conv2d/kernel/Initializer/random_uniform/mul"
      input: "conv2d/kernel/Initializer/random_uniform/min"
      attr {
        key: "T"
        value {
          type: DT_FLOAT
        }
      }
      attr {
        key: "_class"
        value {
          list {
            s: "loc:@conv2d/kernel"
          }
        }
      }
      attr {
        key: "_output_shapes"
        value {
          list {
            shape {
              dim {
                size: 3
              }
              dim {
                size: 3
              }
              dim {
                size: 1
              }
              dim {
                size: 8
              }
            }
          }
        }
      }
    }
    node {
      name: "conv2d/kernel"
      op: "VarHandleOp"
      attr {
        key: "_class"
        value {
          list {
            s: "loc:@conv2d/kernel"
          }
        }
      }
      attr {
        key: "_output_shapes"
        value {
          list {
            shape {
            }
          }
        }
      }
      attr {
        key: "container"
        value {
          s: ""
        }
      }
      attr {
        key: "dtype"
        value {
          type: DT_FLOAT
        }
      }
      attr {
        key: "shape"
        value {
          shape {
            dim {
              size: 3
            }
            dim {
              size: 3
            }
            dim {
              size: 1
            }
            dim {
              size: 8
            }
          }
        }
      }
      attr {
        key: "shared_name"
        value {
          s: "conv2d/kernel"
        }
      }
    }
    node {
      name: "conv2d/kernel/IsInitialized/VarIsInitializedOp"
      op: "VarIsInitializedOp"
      input: "conv2d/kernel"
      attr {
        key: "_output_shapes"
        value {
          list {
            shape {
            }
          }
        }
      }
    }
    node {
      name: "conv2d/kernel/Assign"
      op: "AssignVariableOp"
      input: "conv2d/kernel"
      input: "conv2d/kernel/Initializer/random_uniform"
      attr {
        key: "_class"
        value {
          list {
            s: "loc:@conv2d/kernel"
          }
        }
      }
      attr {
        key: "dtype"
        value {
          type: DT_FLOAT
        }
      }
    }
    node {
      name: "conv2d/kernel/Read/ReadVariableOp"
      op: "ReadVariableOp"
      input: "conv2d/kernel"
      attr {
        key: "_class"
        value {
          list {
            s: "loc:@conv2d/kernel"
          }
        }
      }
      attr {
        key: "_output_shapes"
        value {
          list {
            shape {
              dim {
                size: 3
              }
              dim {
                size: 3
              }
              dim {
                size: 1
              }
              dim {
                size: 8
              }
            }
          }
        }
      }
      attr {
        key: "dtype"
        value {
          type: DT_FLOAT
        }
      }
    }
    node {
      name: "conv2d/bias/Initializer/zeros"
      op: "Const"
      attr {
        key: "_class"
        value {
          list {
            s: "loc:@conv2d/bias"
          }
        }
      }
      attr {
        key: "_output_shapes"
        value {
          list {
            shape {
              dim {
                size: 8
              }
            }
          }
        }
      }
      attr {
        key: "dtype"
        value {
          type: DT_FLOAT
        }
      }
      attr {
        key: "value"
        value {
          tensor {
            dtype: DT_FLOAT
            tensor_shape {
              dim {
                size: 8
              }
            }
            float_val: 0.0
          }
        }
      }
    }
    node {
      name: "conv2d/bias"
      op: "VarHandleOp"
      attr {
        key: "_class"
        value {
          list {
            s: "loc:@conv2d/bias"
          }
        }
      }
      attr {
        key: "_output_shapes"
        value {
          list {
            shape {
            }
          }
        }
      }
      attr {
        key: "container"
        value {
          s: ""
        }
      }
      attr {
        key: "dtype"
        value {
          type: DT_FLOAT
        }
      }
      attr {
        key: "shape"
        value {
          shape {
            dim {
              size: 8
            }
          }
        }
      }
      attr {
        key: "shared_name"
        value {
          s: "conv2d/bias"
        }
      }
    }
    node {
      name: "conv2d/bias/IsInitialized/VarIsInitializedOp"
      op: "VarIsInitializedOp"
      input: "conv2d/bias"
      attr {
        key: "_output_shapes"
        value {
          list {
            shape {
            }
          }
        }
      }
    }
    node {
      name: "conv2d/bias/Assign"
      op: "AssignVariableOp"
      input: "conv2d/bias"
      input: "conv2d/bias/Initializer/zeros"
      attr {
        key: "_class"
        value {
          list {
            s: "loc:@conv2d/bias"
          }
        }
      }
      attr {
        key: "dtype"
        value {
          type: DT_FLOAT
        }
      }
    }
    node {
      name: "conv2d/bias/Read/ReadVariableOp"
      op: "ReadVariableOp"
      input: "conv2d/bias"
      attr {
        key: "_class"
        value {
          list {
            s: "loc:@conv2d/bias"
          }
        }
      }
      attr {
        key: "_output_shapes"
        value {
          list {
            shape {
              dim {
                size: 8
              }
            }
          }
        }
      }
      attr {
        key: "dtype"
        value {
          type: DT_FLOAT
        }
      }
    }
    node {
      name: "conv2d/dilation_rate"
      op: "Const"
      attr {
        key: "_output_shapes"
        value {
          list {
            shape {
              dim {
                size: 2
              }
            }
          }
        }
      }
      attr {
        key: "dtype"
        value {
          type: DT_INT32
        }
      }
      attr {
        key: "value"
        value {
          tensor {
            dtype: DT_INT32
            tensor_shape {
              dim {
                size: 2
              }
            }
            tensor_content: "\001\000\000\000\001\000\000\000"
          }
        }
      }
    }
    node {
      name: "conv2d/Conv2D/ReadVariableOp"
      op: "ReadVariableOp"
      input: "conv2d/kernel"
      attr {
        key: "_output_shapes"
        value {
          list {
            shape {
              dim {
                size: 3
              }
              dim {
                size: 3
              }
              dim {
                size: 1
              }
              dim {
                size: 8
              }
            }
          }
        }
      }
      attr {
        key: "dtype"
        value {
          type: DT_FLOAT
        }
      }
    }
    node {
      name: "conv2d/Conv2D"
      op: "Conv2D"
      input: "input_1"
      input: "conv2d/Conv2D/ReadVariableOp"
      attr {
        key: "T"
        value {
          type: DT_FLOAT
        }
      }
      attr {
        key: "_output_shapes"
        value {
          list {
            shape {
              dim {
                size: -1
              }
              dim {
                size: 28
              }
              dim {
                size: 28
              }
              dim {
                size: 8
              }
            }
          }
        }
      }
      attr {
        key: "data_format"
        value {
          s: "NHWC"
        }
      }
      attr {
        key: "dilations"
        value {
          list {
            i: 1
            i: 1
            i: 1
            i: 1
          }
        }
      }
      attr {
        key: "explicit_paddings"
        value {
          list {
          }
        }
      }
      attr {
        key: "padding"
        value {
          s: "SAME"
        }
      }
      attr {
        key: "strides"
        value {
          list {
            i: 1
            i: 1
            i: 1
            i: 1
          }
        }
      }
      attr {
        key: "use_cudnn_on_gpu"
        value {
          b: true
        }
      }
    }
    node {
      name: "conv2d/BiasAdd/ReadVariableOp"
      op: "ReadVariableOp"
      input: "conv2d/bias"
      attr {
        key: "_output_shapes"
        value {
          list {
            shape {
              dim {
                size: 8
              }
            }
          }
        }
      }
      attr {
        key: "dtype"
        value {
          type: DT_FLOAT
        }
      }
    }
    node {
      name: "conv2d/BiasAdd"
      op: "BiasAdd"
      input: "conv2d/Conv2D"
      input: "conv2d/BiasAdd/ReadVariableOp"
      attr {
        key: "T"
        value {
          type: DT_FLOAT
        }
      }
      attr {
        key: "_output_shapes"
        value {
          list {
            shape {
              dim {
                size: -1
              }
              dim {
                size: 28
              }
              dim {
                size: 28
              }
              dim {
                size: 8
              }
            }
          }
        }
      }
      attr {
        key: "data_format"
        value {
          s: "NHWC"
        }
      }
    }
    node {
      name: "conv2d/Relu"
      op: "Relu"
      input: "conv2d/BiasAdd"
      attr {
        key: "T"
        value {
          type: DT_FLOAT
        }
      }
      attr {
        key: "_output_shapes"
        value {
          list {
            shape {
              dim {
                size: -1
              }
              dim {
                size: 28
              }
              dim {
                size: 28
              }
              dim {
                size: 8
              }
            }
          }
        }
      }
    }
    node {
      name: "max_pooling2d/MaxPool"
      op: "MaxPool"
      input: "conv2d/Relu"
      attr {
        key: "T"
        value {
          type: DT_FLOAT
        }
      }
      attr {
        key: "_output_shapes"
        value {
          list {
            shape {
              dim {
                size: -1
              }
              dim {
                size: 14
              }
              dim {
                size: 14
              }
              dim {
                size: 8
              }
            }
          }
        }
      }
      attr {
        key: "data_format"
        value {
          s: "NHWC"
        }
      }
      attr {
        key: "ksize"
        value {
          list {
            i: 1
            i: 2
            i: 2
            i: 1
          }
        }
      }
      attr {
        key: "padding"
        value {
          s: "VALID"
        }
      }
      attr {
        key: "strides"
        value {
          list {
            i: 1
            i: 2
            i: 2
            i: 1
          }
        }
      }
    }
    node {
      name: "conv2d_1/kernel/Initializer/random_uniform/shape"
      op: "Const"
      attr {
        key: "_class"
        value {
          list {
            s: "loc:@conv2d_1/kernel"
          }
        }
      }
      attr {
        key: "_output_shapes"
        value {
          list {
            shape {
              dim {
                size: 4
              }
            }
          }
        }
      }
      attr {
        key: "dtype"
        value {
          type: DT_INT32
        }
      }
      attr {
        key: "value"
        value {
          tensor {
            dtype: DT_INT32
            tensor_shape {
              dim {
                size: 4
              }
            }
            tensor_content: "\003\000\000\000\003\000\000\000\010\000\000\000\004\000\000\000"
          }
        }
      }
    }
    node {
      name: "conv2d_1/kernel/Initializer/random_uniform/min"
      op: "Const"
      attr {
        key: "_class"
        value {
          list {
            s: "loc:@conv2d_1/kernel"
          }
        }
      }
      attr {
        key: "_output_shapes"
        value {
          list {
            shape {
            }
          }
        }
      }
      attr {
        key: "dtype"
        value {
          type: DT_FLOAT
        }
      }
      attr {
        key: "value"
        value {
          tensor {
            dtype: DT_FLOAT
            tensor_shape {
            }
            float_val: -0.2357022613286972
          }
        }
      }
    }
    node {
      name: "conv2d_1/kernel/Initializer/random_uniform/max"
      op: "Const"
      attr {
        key: "_class"
        value {
          list {
            s: "loc:@conv2d_1/kernel"
          }
        }
      }
      attr {
        key: "_output_shapes"
        value {
          list {
            shape {
            }
          }
        }
      }
      attr {
        key: "dtype"
        value {
          type: DT_FLOAT
        }
      }
      attr {
        key: "value"
        value {
          tensor {
            dtype: DT_FLOAT
            tensor_shape {
            }
            float_val: 0.2357022613286972
          }
        }
      }
    }
    node {
      name: "conv2d_1/kernel/Initializer/random_uniform/RandomUniform"
      op: "RandomUniform"
      input: "conv2d_1/kernel/Initializer/random_uniform/shape"
      attr {
        key: "T"
        value {
          type: DT_INT32
        }
      }
      attr {
        key: "_class"
        value {
          list {
            s: "loc:@conv2d_1/kernel"
          }
        }
      }
      attr {
        key: "_output_shapes"
        value {
          list {
            shape {
              dim {
                size: 3
              }
              dim {
                size: 3
              }
              dim {
                size: 8
              }
              dim {
                size: 4
              }
            }
          }
        }
      }
      attr {
        key: "dtype"
        value {
          type: DT_FLOAT
        }
      }
      attr {
        key: "seed"
        value {
          i: 0
        }
      }
      attr {
        key: "seed2"
        value {
          i: 0
        }
      }
    }
    node {
      name: "conv2d_1/kernel/Initializer/random_uniform/sub"
      op: "Sub"
      input: "conv2d_1/kernel/Initializer/random_uniform/max"
      input: "conv2d_1/kernel/Initializer/random_uniform/min"
      attr {
        key: "T"
        value {
          type: DT_FLOAT
        }
      }
      attr {
        key: "_class"
        value {
          list {
            s: "loc:@conv2d_1/kernel"
          }
        }
      }
      attr {
        key: "_output_shapes"
        value {
          list {
            shape {
            }
          }
        }
      }
    }
    node {
      name: "conv2d_1/kernel/Initializer/random_uniform/mul"
      op: "Mul"
      input: "conv2d_1/kernel/Initializer/random_uniform/RandomUniform"
      input: "conv2d_1/kernel/Initializer/random_uniform/sub"
      attr {
        key: "T"
        value {
          type: DT_FLOAT
        }
      }
      attr {
        key: "_class"
        value {
          list {
            s: "loc:@conv2d_1/kernel"
          }
        }
      }
      attr {
        key: "_output_shapes"
        value {
          list {
            shape {
              dim {
                size: 3
              }
              dim {
                size: 3
              }
              dim {
                size: 8
              }
              dim {
                size: 4
              }
            }
          }
        }
      }
    }
    node {
      name: "conv2d_1/kernel/Initializer/random_uniform"
      op: "Add"
      input: "conv2d_1/kernel/Initializer/random_uniform/mul"
      input: "conv2d_1/kernel/Initializer/random_uniform/min"
      attr {
        key: "T"
        value {
          type: DT_FLOAT
        }
      }
      attr {
        key: "_class"
        value {
          list {
            s: "loc:@conv2d_1/kernel"
          }
        }
      }
      attr {
        key: "_output_shapes"
        value {
          list {
            shape {
              dim {
                size: 3
              }
              dim {
                size: 3
              }
              dim {
                size: 8
              }
              dim {
                size: 4
              }
            }
          }
        }
      }
    }
    node {
      name: "conv2d_1/kernel"
      op: "VarHandleOp"
      attr {
        key: "_class"
        value {
          list {
            s: "loc:@conv2d_1/kernel"
          }
        }
      }
      attr {
        key: "_output_shapes"
        value {
          list {
            shape {
            }
          }
        }
      }
      attr {
        key: "container"
        value {
          s: ""
        }
      }
      attr {
        key: "dtype"
        value {
          type: DT_FLOAT
        }
      }
      attr {
        key: "shape"
        value {
          shape {
            dim {
              size: 3
            }
            dim {
              size: 3
            }
            dim {
              size: 8
            }
            dim {
              size: 4
            }
          }
        }
      }
      attr {
        key: "shared_name"
        value {
          s: "conv2d_1/kernel"
        }
      }
    }
    node {
      name: "conv2d_1/kernel/IsInitialized/VarIsInitializedOp"
      op: "VarIsInitializedOp"
      input: "conv2d_1/kernel"
      attr {
        key: "_output_shapes"
        value {
          list {
            shape {
            }
          }
        }
      }
    }
    node {
      name: "conv2d_1/kernel/Assign"
      op: "AssignVariableOp"
      input: "conv2d_1/kernel"
      input: "conv2d_1/kernel/Initializer/random_uniform"
      attr {
        key: "_class"
        value {
          list {
            s: "loc:@conv2d_1/kernel"
          }
        }
      }
      attr {
        key: "dtype"
        value {
          type: DT_FLOAT
        }
      }
    }
    node {
      name: "conv2d_1/kernel/Read/ReadVariableOp"
      op: "ReadVariableOp"
      input: "conv2d_1/kernel"
      attr {
        key: "_class"
        value {
          list {
            s: "loc:@conv2d_1/kernel"
          }
        }
      }
      attr {
        key: "_output_shapes"
        value {
          list {
            shape {
              dim {
                size: 3
              }
              dim {
                size: 3
              }
              dim {
                size: 8
              }
              dim {
                size: 4
              }
            }
          }
        }
      }
      attr {
        key: "dtype"
        value {
          type: DT_FLOAT
        }
      }
    }
    node {
      name: "conv2d_1/bias/Initializer/zeros"
      op: "Const"
      attr {
        key: "_class"
        value {
          list {
            s: "loc:@conv2d_1/bias"
          }
        }
      }
      attr {
        key: "_output_shapes"
        value {
          list {
            shape {
              dim {
                size: 4
              }
            }
          }
        }
      }
      attr {
        key: "dtype"
        value {
          type: DT_FLOAT
        }
      }
      attr {
        key: "value"
        value {
          tensor {
            dtype: DT_FLOAT
            tensor_shape {
              dim {
                size: 4
              }
            }
            float_val: 0.0
          }
        }
      }
    }
    node {
      name: "conv2d_1/bias"
      op: "VarHandleOp"
      attr {
        key: "_class"
        value {
          list {
            s: "loc:@conv2d_1/bias"
          }
        }
      }
      attr {
        key: "_output_shapes"
        value {
          list {
            shape {
            }
          }
        }
      }
      attr {
        key: "container"
        value {
          s: ""
        }
      }
      attr {
        key: "dtype"
        value {
          type: DT_FLOAT
        }
      }
      attr {
        key: "shape"
        value {
          shape {
            dim {
              size: 4
            }
          }
        }
      }
      attr {
        key: "shared_name"
        value {
          s: "conv2d_1/bias"
        }
      }
    }
    node {
      name: "conv2d_1/bias/IsInitialized/VarIsInitializedOp"
      op: "VarIsInitializedOp"
      input: "conv2d_1/bias"
      attr {
        key: "_output_shapes"
        value {
          list {
            shape {
            }
          }
        }
      }
    }
    node {
      name: "conv2d_1/bias/Assign"
      op: "AssignVariableOp"
      input: "conv2d_1/bias"
      input: "conv2d_1/bias/Initializer/zeros"
      attr {
        key: "_class"
        value {
          list {
            s: "loc:@conv2d_1/bias"
          }
        }
      }
      attr {
        key: "dtype"
        value {
          type: DT_FLOAT
        }
      }
    }
    node {
      name: "conv2d_1/bias/Read/ReadVariableOp"
      op: "ReadVariableOp"
      input: "conv2d_1/bias"
      attr {
        key: "_class"
        value {
          list {
            s: "loc:@conv2d_1/bias"
          }
        }
      }
      attr {
        key: "_output_shapes"
        value {
          list {
            shape {
              dim {
                size: 4
              }
            }
          }
        }
      }
      attr {
        key: "dtype"
        value {
          type: DT_FLOAT
        }
      }
    }
    node {
      name: "conv2d_1/dilation_rate"
      op: "Const"
      attr {
        key: "_output_shapes"
        value {
          list {
            shape {
              dim {
                size: 2
              }
            }
          }
        }
      }
      attr {
        key: "dtype"
        value {
          type: DT_INT32
        }
      }
      attr {
        key: "value"
        value {
          tensor {
            dtype: DT_INT32
            tensor_shape {
              dim {
                size: 2
              }
            }
            tensor_content: "\001\000\000\000\001\000\000\000"
          }
        }
      }
    }
    node {
      name: "conv2d_1/Conv2D/ReadVariableOp"
      op: "ReadVariableOp"
      input: "conv2d_1/kernel"
      attr {
        key: "_output_shapes"
        value {
          list {
            shape {
              dim {
                size: 3
              }
              dim {
                size: 3
              }
              dim {
                size: 8
              }
              dim {
                size: 4
              }
            }
          }
        }
      }
      attr {
        key: "dtype"
        value {
          type: DT_FLOAT
        }
      }
    }
    node {
      name: "conv2d_1/Conv2D"
      op: "Conv2D"
      input: "max_pooling2d/MaxPool"
      input: "conv2d_1/Conv2D/ReadVariableOp"
      attr {
        key: "T"
        value {
          type: DT_FLOAT
        }
      }
      attr {
        key: "_output_shapes"
        value {
          list {
            shape {
              dim {
                size: -1
              }
              dim {
                size: 14
              }
              dim {
                size: 14
              }
              dim {
                size: 4
              }
            }
          }
        }
      }
      attr {
        key: "data_format"
        value {
          s: "NHWC"
        }
      }
      attr {
        key: "dilations"
        value {
          list {
            i: 1
            i: 1
            i: 1
            i: 1
          }
        }
      }
      attr {
        key: "explicit_paddings"
        value {
          list {
          }
        }
      }
      attr {
        key: "padding"
        value {
          s: "SAME"
        }
      }
      attr {
        key: "strides"
        value {
          list {
            i: 1
            i: 1
            i: 1
            i: 1
          }
        }
      }
      attr {
        key: "use_cudnn_on_gpu"
        value {
          b: true
        }
      }
    }
    node {
      name: "conv2d_1/BiasAdd/ReadVariableOp"
      op: "ReadVariableOp"
      input: "conv2d_1/bias"
      attr {
        key: "_output_shapes"
        value {
          list {
            shape {
              dim {
                size: 4
              }
            }
          }
        }
      }
      attr {
        key: "dtype"
        value {
          type: DT_FLOAT
        }
      }
    }
    node {
      name: "conv2d_1/BiasAdd"
      op: "BiasAdd"
      input: "conv2d_1/Conv2D"
      input: "conv2d_1/BiasAdd/ReadVariableOp"
      attr {
        key: "T"
        value {
          type: DT_FLOAT
        }
      }
      attr {
        key: "_output_shapes"
        value {
          list {
            shape {
              dim {
                size: -1
              }
              dim {
                size: 14
              }
              dim {
                size: 14
              }
              dim {
                size: 4
              }
            }
          }
        }
      }
      attr {
        key: "data_format"
        value {
          s: "NHWC"
        }
      }
    }
    node {
      name: "conv2d_1/Relu"
      op: "Relu"
      input: "conv2d_1/BiasAdd"
      attr {
        key: "T"
        value {
          type: DT_FLOAT
        }
      }
      attr {
        key: "_output_shapes"
        value {
          list {
            shape {
              dim {
                size: -1
              }
              dim {
                size: 14
              }
              dim {
                size: 14
              }
              dim {
                size: 4
              }
            }
          }
        }
      }
    }
    node {
      name: "keras_learning_phase/input"
      op: "Const"
      attr {
        key: "_output_shapes"
        value {
          list {
            shape {
            }
          }
        }
      }
      attr {
        key: "dtype"
        value {
          type: DT_BOOL
        }
      }
      attr {
        key: "value"
        value {
          tensor {
            dtype: DT_BOOL
            tensor_shape {
            }
            bool_val: false
          }
        }
      }
    }
    node {
      name: "keras_learning_phase"
      op: "PlaceholderWithDefault"
      input: "keras_learning_phase/input"
      attr {
        key: "_output_shapes"
        value {
          list {
            shape {
            }
          }
        }
      }
      attr {
        key: "dtype"
        value {
          type: DT_BOOL
        }
      }
      attr {
        key: "shape"
        value {
          shape {
          }
        }
      }
    }
    node {
      name: "dropout/cond/Switch"
      op: "Switch"
      input: "keras_learning_phase"
      input: "keras_learning_phase"
      attr {
        key: "T"
        value {
          type: DT_BOOL
        }
      }
      attr {
        key: "_output_shapes"
        value {
          list {
            shape {
            }
            shape {
            }
          }
        }
      }
    }
    node {
      name: "dropout/cond/switch_t"
      op: "Identity"
      input: "dropout/cond/Switch:1"
      attr {
        key: "T"
        value {
          type: DT_BOOL
        }
      }
      attr {
        key: "_output_shapes"
        value {
          list {
            shape {
            }
          }
        }
      }
    }
    node {
      name: "dropout/cond/switch_f"
      op: "Identity"
      input: "dropout/cond/Switch"
      attr {
        key: "T"
        value {
          type: DT_BOOL
        }
      }
      attr {
        key: "_output_shapes"
        value {
          list {
            shape {
            }
          }
        }
      }
    }
    node {
      name: "dropout/cond/pred_id"
      op: "Identity"
      input: "keras_learning_phase"
      attr {
        key: "T"
        value {
          type: DT_BOOL
        }
      }
      attr {
        key: "_output_shapes"
        value {
          list {
            shape {
            }
          }
        }
      }
    }
    node {
      name: "dropout/cond/dropout/rate"
      op: "Const"
      input: "^dropout/cond/switch_t"
      attr {
        key: "_output_shapes"
        value {
          list {
            shape {
            }
          }
        }
      }
      attr {
        key: "dtype"
        value {
          type: DT_FLOAT
        }
      }
      attr {
        key: "value"
        value {
          tensor {
            dtype: DT_FLOAT
            tensor_shape {
            }
            float_val: 0.20000000298023224
          }
        }
      }
    }
    node {
      name: "dropout/cond/dropout/Shape"
      op: "Shape"
      input: "dropout/cond/dropout/Shape/Switch:1"
      attr {
        key: "T"
        value {
          type: DT_FLOAT
        }
      }
      attr {
        key: "_output_shapes"
        value {
          list {
            shape {
              dim {
                size: 4
              }
            }
          }
        }
      }
      attr {
        key: "out_type"
        value {
          type: DT_INT32
        }
      }
    }
    node {
      name: "dropout/cond/dropout/Shape/Switch"
      op: "Switch"
      input: "conv2d_1/Relu"
      input: "dropout/cond/pred_id"
      attr {
        key: "T"
        value {
          type: DT_FLOAT
        }
      }
      attr {
        key: "_class"
        value {
          list {
            s: "loc:@conv2d_1/Relu"
          }
        }
      }
      attr {
        key: "_output_shapes"
        value {
          list {
            shape {
              dim {
                size: -1
              }
              dim {
                size: 14
              }
              dim {
                size: 14
              }
              dim {
                size: 4
              }
            }
            shape {
              dim {
                size: -1
              }
              dim {
                size: 14
              }
              dim {
                size: 14
              }
              dim {
                size: 4
              }
            }
          }
        }
      }
    }
    node {
      name: "dropout/cond/dropout/random_uniform/min"
      op: "Const"
      input: "^dropout/cond/switch_t"
      attr {
        key: "_output_shapes"
        value {
          list {
            shape {
            }
          }
        }
      }
      attr {
        key: "dtype"
        value {
          type: DT_FLOAT
        }
      }
      attr {
        key: "value"
        value {
          tensor {
            dtype: DT_FLOAT
            tensor_shape {
            }
            float_val: 0.0
          }
        }
      }
    }
    node {
      name: "dropout/cond/dropout/random_uniform/max"
      op: "Const"
      input: "^dropout/cond/switch_t"
      attr {
        key: "_output_shapes"
        value {
          list {
            shape {
            }
          }
        }
      }
      attr {
        key: "dtype"
        value {
          type: DT_FLOAT
        }
      }
      attr {
        key: "value"
        value {
          tensor {
            dtype: DT_FLOAT
            tensor_shape {
            }
            float_val: 1.0
          }
        }
      }
    }
    node {
      name: "dropout/cond/dropout/random_uniform/RandomUniform"
      op: "RandomUniform"
      input: "dropout/cond/dropout/Shape"
      attr {
        key: "T"
        value {
          type: DT_INT32
        }
      }
      attr {
        key: "_output_shapes"
        value {
          list {
            shape {
              dim {
                size: -1
              }
              dim {
                size: 14
              }
              dim {
                size: 14
              }
              dim {
                size: 4
              }
            }
          }
        }
      }
      attr {
        key: "dtype"
        value {
          type: DT_FLOAT
        }
      }
      attr {
        key: "seed"
        value {
          i: 0
        }
      }
      attr {
        key: "seed2"
        value {
          i: 0
        }
      }
    }
    node {
      name: "dropout/cond/dropout/random_uniform/sub"
      op: "Sub"
      input: "dropout/cond/dropout/random_uniform/max"
      input: "dropout/cond/dropout/random_uniform/min"
      attr {
        key: "T"
        value {
          type: DT_FLOAT
        }
      }
      attr {
        key: "_output_shapes"
        value {
          list {
            shape {
            }
          }
        }
      }
    }
    node {
      name: "dropout/cond/dropout/random_uniform/mul"
      op: "Mul"
      input: "dropout/cond/dropout/random_uniform/RandomUniform"
      input: "dropout/cond/dropout/random_uniform/sub"
      attr {
        key: "T"
        value {
          type: DT_FLOAT
        }
      }
      attr {
        key: "_output_shapes"
        value {
          list {
            shape {
              dim {
                size: -1
              }
              dim {
                size: 14
              }
              dim {
                size: 14
              }
              dim {
                size: 4
              }
            }
          }
        }
      }
    }
    node {
      name: "dropout/cond/dropout/random_uniform"
      op: "Add"
      input: "dropout/cond/dropout/random_uniform/mul"
      input: "dropout/cond/dropout/random_uniform/min"
      attr {
        key: "T"
        value {
          type: DT_FLOAT
        }
      }
      attr {
        key: "_output_shapes"
        value {
          list {
            shape {
              dim {
                size: -1
              }
              dim {
                size: 14
              }
              dim {
                size: 14
              }
              dim {
                size: 4
              }
            }
          }
        }
      }
    }
    node {
      name: "dropout/cond/dropout/sub/x"
      op: "Const"
      input: "^dropout/cond/switch_t"
      attr {
        key: "_output_shapes"
        value {
          list {
            shape {
            }
          }
        }
      }
      attr {
        key: "dtype"
        value {
          type: DT_FLOAT
        }
      }
      attr {
        key: "value"
        value {
          tensor {
            dtype: DT_FLOAT
            tensor_shape {
            }
            float_val: 1.0
          }
        }
      }
    }
    node {
      name: "dropout/cond/dropout/sub"
      op: "Sub"
      input: "dropout/cond/dropout/sub/x"
      input: "dropout/cond/dropout/rate"
      attr {
        key: "T"
        value {
          type: DT_FLOAT
        }
      }
      attr {
        key: "_output_shapes"
        value {
          list {
            shape {
            }
          }
        }
      }
    }
    node {
      name: "dropout/cond/dropout/truediv/x"
      op: "Const"
      input: "^dropout/cond/switch_t"
      attr {
        key: "_output_shapes"
        value {
          list {
            shape {
            }
          }
        }
      }
      attr {
        key: "dtype"
        value {
          type: DT_FLOAT
        }
      }
      attr {
        key: "value"
        value {
          tensor {
            dtype: DT_FLOAT
            tensor_shape {
            }
            float_val: 1.0
          }
        }
      }
    }
    node {
      name: "dropout/cond/dropout/truediv"
      op: "RealDiv"
      input: "dropout/cond/dropout/truediv/x"
      input: "dropout/cond/dropout/sub"
      attr {
        key: "T"
        value {
          type: DT_FLOAT
        }
      }
      attr {
        key: "_output_shapes"
        value {
          list {
            shape {
            }
          }
        }
      }
    }
    node {
      name: "dropout/cond/dropout/GreaterEqual"
      op: "GreaterEqual"
      input: "dropout/cond/dropout/random_uniform"
      input: "dropout/cond/dropout/rate"
      attr {
        key: "T"
        value {
          type: DT_FLOAT
        }
      }
      attr {
        key: "_output_shapes"
        value {
          list {
            shape {
              dim {
                size: -1
              }
              dim {
                size: 14
              }
              dim {
                size: 14
              }
              dim {
                size: 4
              }
            }
          }
        }
      }
    }
    node {
      name: "dropout/cond/dropout/mul"
      op: "Mul"
      input: "dropout/cond/dropout/Shape/Switch:1"
      input: "dropout/cond/dropout/truediv"
      attr {
        key: "T"
        value {
          type: DT_FLOAT
        }
      }
      attr {
        key: "_output_shapes"
        value {
          list {
            shape {
              dim {
                size: -1
              }
              dim {
                size: 14
              }
              dim {
                size: 14
              }
              dim {
                size: 4
              }
            }
          }
        }
      }
    }
    node {
      name: "dropout/cond/dropout/Cast"
      op: "Cast"
      input: "dropout/cond/dropout/GreaterEqual"
      attr {
        key: "DstT"
        value {
          type: DT_FLOAT
        }
      }
      attr {
        key: "SrcT"
        value {
          type: DT_BOOL
        }
      }
      attr {
        key: "Truncate"
        value {
          b: false
        }
      }
      attr {
        key: "_output_shapes"
        value {
          list {
            shape {
              dim {
                size: -1
              }
              dim {
                size: 14
              }
              dim {
                size: 14
              }
              dim {
                size: 4
              }
            }
          }
        }
      }
    }
    node {
      name: "dropout/cond/dropout/mul_1"
      op: "Mul"
      input: "dropout/cond/dropout/mul"
      input: "dropout/cond/dropout/Cast"
      attr {
        key: "T"
        value {
          type: DT_FLOAT
        }
      }
      attr {
        key: "_output_shapes"
        value {
          list {
            shape {
              dim {
                size: -1
              }
              dim {
                size: 14
              }
              dim {
                size: 14
              }
              dim {
                size: 4
              }
            }
          }
        }
      }
    }
    node {
      name: "dropout/cond/Identity"
      op: "Identity"
      input: "dropout/cond/Identity/Switch"
      attr {
        key: "T"
        value {
          type: DT_FLOAT
        }
      }
      attr {
        key: "_output_shapes"
        value {
          list {
            shape {
              dim {
                size: -1
              }
              dim {
                size: 14
              }
              dim {
                size: 14
              }
              dim {
                size: 4
              }
            }
          }
        }
      }
    }
    node {
      name: "dropout/cond/Identity/Switch"
      op: "Switch"
      input: "conv2d_1/Relu"
      input: "dropout/cond/pred_id"
      attr {
        key: "T"
        value {
          type: DT_FLOAT
        }
      }
      attr {
        key: "_class"
        value {
          list {
            s: "loc:@conv2d_1/Relu"
          }
        }
      }
      attr {
        key: "_output_shapes"
        value {
          list {
            shape {
              dim {
                size: -1
              }
              dim {
                size: 14
              }
              dim {
                size: 14
              }
              dim {
                size: 4
              }
            }
            shape {
              dim {
                size: -1
              }
              dim {
                size: 14
              }
              dim {
                size: 14
              }
              dim {
                size: 4
              }
            }
          }
        }
      }
    }
    node {
      name: "dropout/cond/Merge"
      op: "Merge"
      input: "dropout/cond/Identity"
      input: "dropout/cond/dropout/mul_1"
      attr {
        key: "N"
        value {
          i: 2
        }
      }
      attr {
        key: "T"
        value {
          type: DT_FLOAT
        }
      }
      attr {
        key: "_output_shapes"
        value {
          list {
            shape {
              dim {
                size: -1
              }
              dim {
                size: 14
              }
              dim {
                size: 14
              }
              dim {
                size: 4
              }
            }
            shape {
            }
          }
        }
      }
    }
    node {
      name: "flatten/Shape"
      op: "Shape"
      input: "dropout/cond/Merge"
      attr {
        key: "T"
        value {
          type: DT_FLOAT
        }
      }
      attr {
        key: "_output_shapes"
        value {
          list {
            shape {
              dim {
                size: 4
              }
            }
          }
        }
      }
      attr {
        key: "out_type"
        value {
          type: DT_INT32
        }
      }
    }
    node {
      name: "flatten/strided_slice/stack"
      op: "Const"
      attr {
        key: "_output_shapes"
        value {
          list {
            shape {
              dim {
                size: 1
              }
            }
          }
        }
      }
      attr {
        key: "dtype"
        value {
          type: DT_INT32
        }
      }
      attr {
        key: "value"
        value {
          tensor {
            dtype: DT_INT32
            tensor_shape {
              dim {
                size: 1
              }
            }
            int_val: 0
          }
        }
      }
    }
    node {
      name: "flatten/strided_slice/stack_1"
      op: "Const"
      attr {
        key: "_output_shapes"
        value {
          list {
            shape {
              dim {
                size: 1
              }
            }
          }
        }
      }
      attr {
        key: "dtype"
        value {
          type: DT_INT32
        }
      }
      attr {
        key: "value"
        value {
          tensor {
            dtype: DT_INT32
            tensor_shape {
              dim {
                size: 1
              }
            }
            int_val: 1
          }
        }
      }
    }
    node {
      name: "flatten/strided_slice/stack_2"
      op: "Const"
      attr {
        key: "_output_shapes"
        value {
          list {
            shape {
              dim {
                size: 1
              }
            }
          }
        }
      }
      attr {
        key: "dtype"
        value {
          type: DT_INT32
        }
      }
      attr {
        key: "value"
        value {
          tensor {
            dtype: DT_INT32
            tensor_shape {
              dim {
                size: 1
              }
            }
            int_val: 1
          }
        }
      }
    }
    node {
      name: "flatten/strided_slice"
      op: "StridedSlice"
      input: "flatten/Shape"
      input: "flatten/strided_slice/stack"
      input: "flatten/strided_slice/stack_1"
      input: "flatten/strided_slice/stack_2"
      attr {
        key: "Index"
        value {
          type: DT_INT32
        }
      }
      attr {
        key: "T"
        value {
          type: DT_INT32
        }
      }
      attr {
        key: "_output_shapes"
        value {
          list {
            shape {
            }
          }
        }
      }
      attr {
        key: "begin_mask"
        value {
          i: 0
        }
      }
      attr {
        key: "ellipsis_mask"
        value {
          i: 0
        }
      }
      attr {
        key: "end_mask"
        value {
          i: 0
        }
      }
      attr {
        key: "new_axis_mask"
        value {
          i: 0
        }
      }
      attr {
        key: "shrink_axis_mask"
        value {
          i: 1
        }
      }
    }
    node {
      name: "flatten/Reshape/shape/1"
      op: "Const"
      attr {
        key: "_output_shapes"
        value {
          list {
            shape {
            }
          }
        }
      }
      attr {
        key: "dtype"
        value {
          type: DT_INT32
        }
      }
      attr {
        key: "value"
        value {
          tensor {
            dtype: DT_INT32
            tensor_shape {
            }
            int_val: -1
          }
        }
      }
    }
    node {
      name: "flatten/Reshape/shape"
      op: "Pack"
      input: "flatten/strided_slice"
      input: "flatten/Reshape/shape/1"
      attr {
        key: "N"
        value {
          i: 2
        }
      }
      attr {
        key: "T"
        value {
          type: DT_INT32
        }
      }
      attr {
        key: "_output_shapes"
        value {
          list {
            shape {
              dim {
                size: 2
              }
            }
          }
        }
      }
      attr {
        key: "axis"
        value {
          i: 0
        }
      }
    }
    node {
      name: "flatten/Reshape"
      op: "Reshape"
      input: "dropout/cond/Merge"
      input: "flatten/Reshape/shape"
      attr {
        key: "T"
        value {
          type: DT_FLOAT
        }
      }
      attr {
        key: "Tshape"
        value {
          type: DT_INT32
        }
      }
      attr {
        key: "_output_shapes"
        value {
          list {
            shape {
              dim {
                size: -1
              }
              dim {
                size: 784
              }
            }
          }
        }
      }
    }
    node {
      name: "dense/kernel/Initializer/random_uniform/shape"
      op: "Const"
      attr {
        key: "_class"
        value {
          list {
            s: "loc:@dense/kernel"
          }
        }
      }
      attr {
        key: "_output_shapes"
        value {
          list {
            shape {
              dim {
                size: 2
              }
            }
          }
        }
      }
      attr {
        key: "dtype"
        value {
          type: DT_INT32
        }
      }
      attr {
        key: "value"
        value {
          tensor {
            dtype: DT_INT32
            tensor_shape {
              dim {
                size: 2
              }
            }
            tensor_content: "\020\003\000\000\n\000\000\000"
          }
        }
      }
    }
    node {
      name: "dense/kernel/Initializer/random_uniform/min"
      op: "Const"
      attr {
        key: "_class"
        value {
          list {
            s: "loc:@dense/kernel"
          }
        }
      }
      attr {
        key: "_output_shapes"
        value {
          list {
            shape {
            }
          }
        }
      }
      attr {
        key: "dtype"
        value {
          type: DT_FLOAT
        }
      }
      attr {
        key: "value"
        value {
          tensor {
            dtype: DT_FLOAT
            tensor_shape {
            }
            float_val: -0.08692913502454758
          }
        }
      }
    }
    node {
      name: "dense/kernel/Initializer/random_uniform/max"
      op: "Const"
      attr {
        key: "_class"
        value {
          list {
            s: "loc:@dense/kernel"
          }
        }
      }
      attr {
        key: "_output_shapes"
        value {
          list {
            shape {
            }
          }
        }
      }
      attr {
        key: "dtype"
        value {
          type: DT_FLOAT
        }
      }
      attr {
        key: "value"
        value {
          tensor {
            dtype: DT_FLOAT
            tensor_shape {
            }
            float_val: 0.08692913502454758
          }
        }
      }
    }
    node {
      name: "dense/kernel/Initializer/random_uniform/RandomUniform"
      op: "RandomUniform"
      input: "dense/kernel/Initializer/random_uniform/shape"
      attr {
        key: "T"
        value {
          type: DT_INT32
        }
      }
      attr {
        key: "_class"
        value {
          list {
            s: "loc:@dense/kernel"
          }
        }
      }
      attr {
        key: "_output_shapes"
        value {
          list {
            shape {
              dim {
                size: 784
              }
              dim {
                size: 10
              }
            }
          }
        }
      }
      attr {
        key: "dtype"
        value {
          type: DT_FLOAT
        }
      }
      attr {
        key: "seed"
        value {
          i: 0
        }
      }
      attr {
        key: "seed2"
        value {
          i: 0
        }
      }
    }
    node {
      name: "dense/kernel/Initializer/random_uniform/sub"
      op: "Sub"
      input: "dense/kernel/Initializer/random_uniform/max"
      input: "dense/kernel/Initializer/random_uniform/min"
      attr {
        key: "T"
        value {
          type: DT_FLOAT
        }
      }
      attr {
        key: "_class"
        value {
          list {
            s: "loc:@dense/kernel"
          }
        }
      }
      attr {
        key: "_output_shapes"
        value {
          list {
            shape {
            }
          }
        }
      }
    }
    node {
      name: "dense/kernel/Initializer/random_uniform/mul"
      op: "Mul"
      input: "dense/kernel/Initializer/random_uniform/RandomUniform"
      input: "dense/kernel/Initializer/random_uniform/sub"
      attr {
        key: "T"
        value {
          type: DT_FLOAT
        }
      }
      attr {
        key: "_class"
        value {
          list {
            s: "loc:@dense/kernel"
          }
        }
      }
      attr {
        key: "_output_shapes"
        value {
          list {
            shape {
              dim {
                size: 784
              }
              dim {
                size: 10
              }
            }
          }
        }
      }
    }
    node {
      name: "dense/kernel/Initializer/random_uniform"
      op: "Add"
      input: "dense/kernel/Initializer/random_uniform/mul"
      input: "dense/kernel/Initializer/random_uniform/min"
      attr {
        key: "T"
        value {
          type: DT_FLOAT
        }
      }
      attr {
        key: "_class"
        value {
          list {
            s: "loc:@dense/kernel"
          }
        }
      }
      attr {
        key: "_output_shapes"
        value {
          list {
            shape {
              dim {
                size: 784
              }
              dim {
                size: 10
              }
            }
          }
        }
      }
    }
    node {
      name: "dense/kernel"
      op: "VarHandleOp"
      attr {
        key: "_class"
        value {
          list {
            s: "loc:@dense/kernel"
          }
        }
      }
      attr {
        key: "_output_shapes"
        value {
          list {
            shape {
            }
          }
        }
      }
      attr {
        key: "container"
        value {
          s: ""
        }
      }
      attr {
        key: "dtype"
        value {
          type: DT_FLOAT
        }
      }
      attr {
        key: "shape"
        value {
          shape {
            dim {
              size: 784
            }
            dim {
              size: 10
            }
          }
        }
      }
      attr {
        key: "shared_name"
        value {
          s: "dense/kernel"
        }
      }
    }
    node {
      name: "dense/kernel/IsInitialized/VarIsInitializedOp"
      op: "VarIsInitializedOp"
      input: "dense/kernel"
      attr {
        key: "_output_shapes"
        value {
          list {
            shape {
            }
          }
        }
      }
    }
    node {
      name: "dense/kernel/Assign"
      op: "AssignVariableOp"
      input: "dense/kernel"
      input: "dense/kernel/Initializer/random_uniform"
      attr {
        key: "_class"
        value {
          list {
            s: "loc:@dense/kernel"
          }
        }
      }
      attr {
        key: "dtype"
        value {
          type: DT_FLOAT
        }
      }
    }
    node {
      name: "dense/kernel/Read/ReadVariableOp"
      op: "ReadVariableOp"
      input: "dense/kernel"
      attr {
        key: "_class"
        value {
          list {
            s: "loc:@dense/kernel"
          }
        }
      }
      attr {
        key: "_output_shapes"
        value {
          list {
            shape {
              dim {
                size: 784
              }
              dim {
                size: 10
              }
            }
          }
        }
      }
      attr {
        key: "dtype"
        value {
          type: DT_FLOAT
        }
      }
    }
    node {
      name: "dense/bias/Initializer/zeros"
      op: "Const"
      attr {
        key: "_class"
        value {
          list {
            s: "loc:@dense/bias"
          }
        }
      }
      attr {
        key: "_output_shapes"
        value {
          list {
            shape {
              dim {
                size: 10
              }
            }
          }
        }
      }
      attr {
        key: "dtype"
        value {
          type: DT_FLOAT
        }
      }
      attr {
        key: "value"
        value {
          tensor {
            dtype: DT_FLOAT
            tensor_shape {
              dim {
                size: 10
              }
            }
            float_val: 0.0
          }
        }
      }
    }
    node {
      name: "dense/bias"
      op: "VarHandleOp"
      attr {
        key: "_class"
        value {
          list {
            s: "loc:@dense/bias"
          }
        }
      }
      attr {
        key: "_output_shapes"
        value {
          list {
            shape {
            }
          }
        }
      }
      attr {
        key: "container"
        value {
          s: ""
        }
      }
      attr {
        key: "dtype"
        value {
          type: DT_FLOAT
        }
      }
      attr {
        key: "shape"
        value {
          shape {
            dim {
              size: 10
            }
          }
        }
      }
      attr {
        key: "shared_name"
        value {
          s: "dense/bias"
        }
      }
    }
    node {
      name: "dense/bias/IsInitialized/VarIsInitializedOp"
      op: "VarIsInitializedOp"
      input: "dense/bias"
      attr {
        key: "_output_shapes"
        value {
          list {
            shape {
            }
          }
        }
      }
    }
    node {
      name: "dense/bias/Assign"
      op: "AssignVariableOp"
      input: "dense/bias"
      input: "dense/bias/Initializer/zeros"
      attr {
        key: "_class"
        value {
          list {
            s: "loc:@dense/bias"
          }
        }
      }
      attr {
        key: "dtype"
        value {
          type: DT_FLOAT
        }
      }
    }
    node {
      name: "dense/bias/Read/ReadVariableOp"
      op: "ReadVariableOp"
      input: "dense/bias"
      attr {
        key: "_class"
        value {
          list {
            s: "loc:@dense/bias"
          }
        }
      }
      attr {
        key: "_output_shapes"
        value {
          list {
            shape {
              dim {
                size: 10
              }
            }
          }
        }
      }
      attr {
        key: "dtype"
        value {
          type: DT_FLOAT
        }
      }
    }
    node {
      name: "dense/MatMul/ReadVariableOp"
      op: "ReadVariableOp"
      input: "dense/kernel"
      attr {
        key: "_output_shapes"
        value {
          list {
            shape {
              dim {
                size: 784
              }
              dim {
                size: 10
              }
            }
          }
        }
      }
      attr {
        key: "dtype"
        value {
          type: DT_FLOAT
        }
      }
    }
    node {
      name: "dense/MatMul"
      op: "MatMul"
      input: "flatten/Reshape"
      input: "dense/MatMul/ReadVariableOp"
      attr {
        key: "T"
        value {
          type: DT_FLOAT
        }
      }
      attr {
        key: "_output_shapes"
        value {
          list {
            shape {
              dim {
                size: -1
              }
              dim {
                size: 10
              }
            }
          }
        }
      }
      attr {
        key: "transpose_a"
        value {
          b: false
        }
      }
      attr {
        key: "transpose_b"
        value {
          b: false
        }
      }
    }
    node {
      name: "dense/BiasAdd/ReadVariableOp"
      op: "ReadVariableOp"
      input: "dense/bias"
      attr {
        key: "_output_shapes"
        value {
          list {
            shape {
              dim {
                size: 10
              }
            }
          }
        }
      }
      attr {
        key: "dtype"
        value {
          type: DT_FLOAT
        }
      }
    }
    node {
      name: "dense/BiasAdd"
      op: "BiasAdd"
      input: "dense/MatMul"
      input: "dense/BiasAdd/ReadVariableOp"
      attr {
        key: "T"
        value {
          type: DT_FLOAT
        }
      }
      attr {
        key: "_output_shapes"
        value {
          list {
            shape {
              dim {
                size: -1
              }
              dim {
                size: 10
              }
            }
          }
        }
      }
      attr {
        key: "data_format"
        value {
          s: "NHWC"
        }
      }
    }
    node {
      name: "dense/Softmax"
      op: "Softmax"
      input: "dense/BiasAdd"
      attr {
        key: "T"
        value {
          type: DT_FLOAT
        }
      }
      attr {
        key: "_output_shapes"
        value {
          list {
            shape {
              dim {
                size: -1
              }
              dim {
                size: 10
              }
            }
          }
        }
      }
    }
    node {
      name: "Placeholder"
      op: "Placeholder"
      attr {
        key: "_output_shapes"
        value {
          list {
            shape {
              dim {
                size: 3
              }
              dim {
                size: 3
              }
              dim {
                size: 1
              }
              dim {
                size: 8
              }
            }
          }
        }
      }
      attr {
        key: "dtype"
        value {
          type: DT_FLOAT
        }
      }
      attr {
        key: "shape"
        value {
          shape {
            dim {
              size: 3
            }
            dim {
              size: 3
            }
            dim {
              size: 1
            }
            dim {
              size: 8
            }
          }
        }
      }
    }
    node {
      name: "AssignVariableOp"
      op: "AssignVariableOp"
      input: "conv2d/kernel"
      input: "Placeholder"
      attr {
        key: "dtype"
        value {
          type: DT_FLOAT
        }
      }
    }
    node {
      name: "ReadVariableOp"
      op: "ReadVariableOp"
      input: "conv2d/kernel"
      input: "^AssignVariableOp"
      attr {
        key: "_output_shapes"
        value {
          list {
            shape {
              dim {
                size: 3
              }
              dim {
                size: 3
              }
              dim {
                size: 1
              }
              dim {
                size: 8
              }
            }
          }
        }
      }
      attr {
        key: "dtype"
        value {
          type: DT_FLOAT
        }
      }
    }
    node {
      name: "Placeholder_1"
      op: "Placeholder"
      attr {
        key: "_output_shapes"
        value {
          list {
            shape {
              dim {
                size: 8
              }
            }
          }
        }
      }
      attr {
        key: "dtype"
        value {
          type: DT_FLOAT
        }
      }
      attr {
        key: "shape"
        value {
          shape {
            dim {
              size: 8
            }
          }
        }
      }
    }
    node {
      name: "AssignVariableOp_1"
      op: "AssignVariableOp"
      input: "conv2d/bias"
      input: "Placeholder_1"
      attr {
        key: "dtype"
        value {
          type: DT_FLOAT
        }
      }
    }
    node {
      name: "ReadVariableOp_1"
      op: "ReadVariableOp"
      input: "conv2d/bias"
      input: "^AssignVariableOp_1"
      attr {
        key: "_output_shapes"
        value {
          list {
            shape {
              dim {
                size: 8
              }
            }
          }
        }
      }
      attr {
        key: "dtype"
        value {
          type: DT_FLOAT
        }
      }
    }
    node {
      name: "Placeholder_2"
      op: "Placeholder"
      attr {
        key: "_output_shapes"
        value {
          list {
            shape {
              dim {
                size: 3
              }
              dim {
                size: 3
              }
              dim {
                size: 8
              }
              dim {
                size: 4
              }
            }
          }
        }
      }
      attr {
        key: "dtype"
        value {
          type: DT_FLOAT
        }
      }
      attr {
        key: "shape"
        value {
          shape {
            dim {
              size: 3
            }
            dim {
              size: 3
            }
            dim {
              size: 8
            }
            dim {
              size: 4
            }
          }
        }
      }
    }
    node {
      name: "AssignVariableOp_2"
      op: "AssignVariableOp"
      input: "conv2d_1/kernel"
      input: "Placeholder_2"
      attr {
        key: "dtype"
        value {
          type: DT_FLOAT
        }
      }
    }
    node {
      name: "ReadVariableOp_2"
      op: "ReadVariableOp"
      input: "conv2d_1/kernel"
      input: "^AssignVariableOp_2"
      attr {
        key: "_output_shapes"
        value {
          list {
            shape {
              dim {
                size: 3
              }
              dim {
                size: 3
              }
              dim {
                size: 8
              }
              dim {
                size: 4
              }
            }
          }
        }
      }
      attr {
        key: "dtype"
        value {
          type: DT_FLOAT
        }
      }
    }
    node {
      name: "Placeholder_3"
      op: "Placeholder"
      attr {
        key: "_output_shapes"
        value {
          list {
            shape {
              dim {
                size: 4
              }
            }
          }
        }
      }
      attr {
        key: "dtype"
        value {
          type: DT_FLOAT
        }
      }
      attr {
        key: "shape"
        value {
          shape {
            dim {
              size: 4
            }
          }
        }
      }
    }
    node {
      name: "AssignVariableOp_3"
      op: "AssignVariableOp"
      input: "conv2d_1/bias"
      input: "Placeholder_3"
      attr {
        key: "dtype"
        value {
          type: DT_FLOAT
        }
      }
    }
    node {
      name: "ReadVariableOp_3"
      op: "ReadVariableOp"
      input: "conv2d_1/bias"
      input: "^AssignVariableOp_3"
      attr {
        key: "_output_shapes"
        value {
          list {
            shape {
              dim {
                size: 4
              }
            }
          }
        }
      }
      attr {
        key: "dtype"
        value {
          type: DT_FLOAT
        }
      }
    }
    node {
      name: "Placeholder_4"
      op: "Placeholder"
      attr {
        key: "_output_shapes"
        value {
          list {
            shape {
              dim {
                size: 784
              }
              dim {
                size: 10
              }
            }
          }
        }
      }
      attr {
        key: "dtype"
        value {
          type: DT_FLOAT
        }
      }
      attr {
        key: "shape"
        value {
          shape {
            dim {
              size: 784
            }
            dim {
              size: 10
            }
          }
        }
      }
    }
    node {
      name: "AssignVariableOp_4"
      op: "AssignVariableOp"
      input: "dense/kernel"
      input: "Placeholder_4"
      attr {
        key: "dtype"
        value {
          type: DT_FLOAT
        }
      }
    }
    node {
      name: "ReadVariableOp_4"
      op: "ReadVariableOp"
      input: "dense/kernel"
      input: "^AssignVariableOp_4"
      attr {
        key: "_output_shapes"
        value {
          list {
            shape {
              dim {
                size: 784
              }
              dim {
                size: 10
              }
            }
          }
        }
      }
      attr {
        key: "dtype"
        value {
          type: DT_FLOAT
        }
      }
    }
    node {
      name: "Placeholder_5"
      op: "Placeholder"
      attr {
        key: "_output_shapes"
        value {
          list {
            shape {
              dim {
                size: 10
              }
            }
          }
        }
      }
      attr {
        key: "dtype"
        value {
          type: DT_FLOAT
        }
      }
      attr {
        key: "shape"
        value {
          shape {
            dim {
              size: 10
            }
          }
        }
      }
    }
    node {
      name: "AssignVariableOp_5"
      op: "AssignVariableOp"
      input: "dense/bias"
      input: "Placeholder_5"
      attr {
        key: "dtype"
        value {
          type: DT_FLOAT
        }
      }
    }
    node {
      name: "ReadVariableOp_5"
      op: "ReadVariableOp"
      input: "dense/bias"
      input: "^AssignVariableOp_5"
      attr {
        key: "_output_shapes"
        value {
          list {
            shape {
              dim {
                size: 10
              }
            }
          }
        }
      }
      attr {
        key: "dtype"
        value {
          type: DT_FLOAT
        }
      }
    }
    node {
      name: "VarIsInitializedOp"
      op: "VarIsInitializedOp"
      input: "conv2d/kernel"
      attr {
        key: "_output_shapes"
        value {
          list {
            shape {
            }
          }
        }
      }
    }
    node {
      name: "VarIsInitializedOp_1"
      op: "VarIsInitializedOp"
      input: "conv2d/bias"
      attr {
        key: "_output_shapes"
        value {
          list {
            shape {
            }
          }
        }
      }
    }
    node {
      name: "VarIsInitializedOp_2"
      op: "VarIsInitializedOp"
      input: "conv2d_1/bias"
      attr {
        key: "_output_shapes"
        value {
          list {
            shape {
            }
          }
        }
      }
    }
    node {
      name: "VarIsInitializedOp_3"
      op: "VarIsInitializedOp"
      input: "dense/kernel"
      attr {
        key: "_output_shapes"
        value {
          list {
            shape {
            }
          }
        }
      }
    }
    node {
      name: "VarIsInitializedOp_4"
      op: "VarIsInitializedOp"
      input: "dense/bias"
      attr {
        key: "_output_shapes"
        value {
          list {
            shape {
            }
          }
        }
      }
    }
    node {
      name: "VarIsInitializedOp_5"
      op: "VarIsInitializedOp"
      input: "conv2d_1/kernel"
      attr {
        key: "_output_shapes"
        value {
          list {
            shape {
            }
          }
        }
      }
    }
    node {
      name: "init_1"
      op: "NoOp"
      input: "^conv2d/bias/Assign"
      input: "^conv2d/kernel/Assign"
      input: "^conv2d_1/bias/Assign"
      input: "^conv2d_1/kernel/Assign"
      input: "^dense/bias/Assign"
      input: "^dense/kernel/Assign"
    }
    node {
      name: "dense_target"
      op: "Placeholder"
      attr {
        key: "_output_shapes"
        value {
          list {
            shape {
              dim {
                size: -1
              }
              dim {
                size: -1
              }
            }
          }
        }
      }
      attr {
        key: "dtype"
        value {
          type: DT_FLOAT
        }
      }
      attr {
        key: "shape"
        value {
          shape {
            dim {
              size: -1
            }
            dim {
              size: -1
            }
          }
        }
      }
    }
    node {
      name: "total/Initializer/zeros"
      op: "Const"
      attr {
        key: "_class"
        value {
          list {
            s: "loc:@total"
          }
        }
      }
      attr {
        key: "_output_shapes"
        value {
          list {
            shape {
            }
          }
        }
      }
      attr {
        key: "dtype"
        value {
          type: DT_FLOAT
        }
      }
      attr {
        key: "value"
        value {
          tensor {
            dtype: DT_FLOAT
            tensor_shape {
            }
            float_val: 0.0
          }
        }
      }
    }
    node {
      name: "total"
      op: "VarHandleOp"
      attr {
        key: "_class"
        value {
          list {
            s: "loc:@total"
          }
        }
      }
      attr {
        key: "_output_shapes"
        value {
          list {
            shape {
            }
          }
        }
      }
      attr {
        key: "container"
        value {
          s: ""
        }
      }
      attr {
        key: "dtype"
        value {
          type: DT_FLOAT
        }
      }
      attr {
        key: "shape"
        value {
          shape {
          }
        }
      }
      attr {
        key: "shared_name"
        value {
          s: "total"
        }
      }
    }
    node {
      name: "total/IsInitialized/VarIsInitializedOp"
      op: "VarIsInitializedOp"
      input: "total"
      attr {
        key: "_output_shapes"
        value {
          list {
            shape {
            }
          }
        }
      }
    }
    node {
      name: "total/Assign"
      op: "AssignVariableOp"
      input: "total"
      input: "total/Initializer/zeros"
      attr {
        key: "_class"
        value {
          list {
            s: "loc:@total"
          }
        }
      }
      attr {
        key: "dtype"
        value {
          type: DT_FLOAT
        }
      }
    }
    node {
      name: "total/Read/ReadVariableOp"
      op: "ReadVariableOp"
      input: "total"
      attr {
        key: "_class"
        value {
          list {
            s: "loc:@total"
          }
        }
      }
      attr {
        key: "_output_shapes"
        value {
          list {
            shape {
            }
          }
        }
      }
      attr {
        key: "dtype"
        value {
          type: DT_FLOAT
        }
      }
    }
    node {
      name: "count/Initializer/zeros"
      op: "Const"
      attr {
        key: "_class"
        value {
          list {
            s: "loc:@count"
          }
        }
      }
      attr {
        key: "_output_shapes"
        value {
          list {
            shape {
            }
          }
        }
      }
      attr {
        key: "dtype"
        value {
          type: DT_FLOAT
        }
      }
      attr {
        key: "value"
        value {
          tensor {
            dtype: DT_FLOAT
            tensor_shape {
            }
            float_val: 0.0
          }
        }
      }
    }
    node {
      name: "count"
      op: "VarHandleOp"
      attr {
        key: "_class"
        value {
          list {
            s: "loc:@count"
          }
        }
      }
      attr {
        key: "_output_shapes"
        value {
          list {
            shape {
            }
          }
        }
      }
      attr {
        key: "container"
        value {
          s: ""
        }
      }
      attr {
        key: "dtype"
        value {
          type: DT_FLOAT
        }
      }
      attr {
        key: "shape"
        value {
          shape {
          }
        }
      }
      attr {
        key: "shared_name"
        value {
          s: "count"
        }
      }
    }
    node {
      name: "count/IsInitialized/VarIsInitializedOp"
      op: "VarIsInitializedOp"
      input: "count"
      attr {
        key: "_output_shapes"
        value {
          list {
            shape {
            }
          }
        }
      }
    }
    node {
      name: "count/Assign"
      op: "AssignVariableOp"
      input: "count"
      input: "count/Initializer/zeros"
      attr {
        key: "_class"
        value {
          list {
            s: "loc:@count"
          }
        }
      }
      attr {
        key: "dtype"
        value {
          type: DT_FLOAT
        }
      }
    }
    node {
      name: "count/Read/ReadVariableOp"
      op: "ReadVariableOp"
      input: "count"
      attr {
        key: "_class"
        value {
          list {
            s: "loc:@count"
          }
        }
      }
      attr {
        key: "_output_shapes"
        value {
          list {
            shape {
            }
          }
        }
      }
      attr {
        key: "dtype"
        value {
          type: DT_FLOAT
        }
      }
    }
    node {
      name: "metrics/acc/ArgMax/dimension"
      op: "Const"
      attr {
        key: "_output_shapes"
        value {
          list {
            shape {
            }
          }
        }
      }
      attr {
        key: "dtype"
        value {
          type: DT_INT32
        }
      }
      attr {
        key: "value"
        value {
          tensor {
            dtype: DT_INT32
            tensor_shape {
            }
            int_val: -1
          }
        }
      }
    }
    node {
      name: "metrics/acc/ArgMax"
      op: "ArgMax"
      input: "dense_target"
      input: "metrics/acc/ArgMax/dimension"
      attr {
        key: "T"
        value {
          type: DT_FLOAT
        }
      }
      attr {
        key: "Tidx"
        value {
          type: DT_INT32
        }
      }
      attr {
        key: "_output_shapes"
        value {
          list {
            shape {
              dim {
                size: -1
              }
            }
          }
        }
      }
      attr {
        key: "output_type"
        value {
          type: DT_INT64
        }
      }
    }
    node {
      name: "metrics/acc/ArgMax_1/dimension"
      op: "Const"
      attr {
        key: "_output_shapes"
        value {
          list {
            shape {
            }
          }
        }
      }
      attr {
        key: "dtype"
        value {
          type: DT_INT32
        }
      }
      attr {
        key: "value"
        value {
          tensor {
            dtype: DT_INT32
            tensor_shape {
            }
            int_val: -1
          }
        }
      }
    }
    node {
      name: "metrics/acc/ArgMax_1"
      op: "ArgMax"
      input: "dense/Softmax"
      input: "metrics/acc/ArgMax_1/dimension"
      attr {
        key: "T"
        value {
          type: DT_FLOAT
        }
      }
      attr {
        key: "Tidx"
        value {
          type: DT_INT32
        }
      }
      attr {
        key: "_output_shapes"
        value {
          list {
            shape {
              dim {
                size: -1
              }
            }
          }
        }
      }
      attr {
        key: "output_type"
        value {
          type: DT_INT64
        }
      }
    }
    node {
      name: "metrics/acc/Equal"
      op: "Equal"
      input: "metrics/acc/ArgMax"
      input: "metrics/acc/ArgMax_1"
      attr {
        key: "T"
        value {
          type: DT_INT64
        }
      }
      attr {
        key: "_output_shapes"
        value {
          list {
            shape {
              dim {
                size: -1
              }
            }
          }
        }
      }
    }
    node {
      name: "metrics/acc/Cast"
      op: "Cast"
      input: "metrics/acc/Equal"
      attr {
        key: "DstT"
        value {
          type: DT_FLOAT
        }
      }
      attr {
        key: "SrcT"
        value {
          type: DT_BOOL
        }
      }
      attr {
        key: "Truncate"
        value {
          b: false
        }
      }
      attr {
        key: "_output_shapes"
        value {
          list {
            shape {
              dim {
                size: -1
              }
            }
          }
        }
      }
    }
    node {
      name: "metrics/acc/Const"
      op: "Const"
      attr {
        key: "_output_shapes"
        value {
          list {
            shape {
              dim {
                size: 1
              }
            }
          }
        }
      }
      attr {
        key: "dtype"
        value {
          type: DT_INT32
        }
      }
      attr {
        key: "value"
        value {
          tensor {
            dtype: DT_INT32
            tensor_shape {
              dim {
                size: 1
              }
            }
            int_val: 0
          }
        }
      }
    }
    node {
      name: "metrics/acc/Sum"
      op: "Sum"
      input: "metrics/acc/Cast"
      input: "metrics/acc/Const"
      attr {
        key: "T"
        value {
          type: DT_FLOAT
        }
      }
      attr {
        key: "Tidx"
        value {
          type: DT_INT32
        }
      }
      attr {
        key: "_output_shapes"
        value {
          list {
            shape {
            }
          }
        }
      }
      attr {
        key: "keep_dims"
        value {
          b: false
        }
      }
    }
    node {
      name: "metrics/acc/AssignAddVariableOp"
      op: "AssignAddVariableOp"
      input: "total"
      input: "metrics/acc/Sum"
      attr {
        key: "dtype"
        value {
          type: DT_FLOAT
        }
      }
    }
    node {
      name: "metrics/acc/ReadVariableOp"
      op: "ReadVariableOp"
      input: "total"
      input: "^metrics/acc/AssignAddVariableOp"
      input: "^metrics/acc/Sum"
      attr {
        key: "_output_shapes"
        value {
          list {
            shape {
            }
          }
        }
      }
      attr {
        key: "dtype"
        value {
          type: DT_FLOAT
        }
      }
    }
    node {
      name: "metrics/acc/Size"
      op: "Size"
      input: "metrics/acc/Cast"
      attr {
        key: "T"
        value {
          type: DT_FLOAT
        }
      }
      attr {
        key: "_output_shapes"
        value {
          list {
            shape {
            }
          }
        }
      }
      attr {
        key: "out_type"
        value {
          type: DT_INT32
        }
      }
    }
    node {
      name: "metrics/acc/Cast_1"
      op: "Cast"
      input: "metrics/acc/Size"
      attr {
        key: "DstT"
        value {
          type: DT_FLOAT
        }
      }
      attr {
        key: "SrcT"
        value {
          type: DT_INT32
        }
      }
      attr {
        key: "Truncate"
        value {
          b: false
        }
      }
      attr {
        key: "_output_shapes"
        value {
          list {
            shape {
            }
          }
        }
      }
    }
    node {
      name: "metrics/acc/AssignAddVariableOp_1"
      op: "AssignAddVariableOp"
      input: "count"
      input: "metrics/acc/Cast_1"
      input: "^metrics/acc/AssignAddVariableOp"
      attr {
        key: "dtype"
        value {
          type: DT_FLOAT
        }
      }
    }
    node {
      name: "metrics/acc/ReadVariableOp_1"
      op: "ReadVariableOp"
      input: "count"
      input: "^metrics/acc/AssignAddVariableOp"
      input: "^metrics/acc/AssignAddVariableOp_1"
      attr {
        key: "_output_shapes"
        value {
          list {
            shape {
            }
          }
        }
      }
      attr {
        key: "dtype"
        value {
          type: DT_FLOAT
        }
      }
    }
    node {
      name: "metrics/acc/div_no_nan/ReadVariableOp"
      op: "ReadVariableOp"
      input: "total"
      input: "^metrics/acc/AssignAddVariableOp_1"
      attr {
        key: "_output_shapes"
        value {
          list {
            shape {
            }
          }
        }
      }
      attr {
        key: "dtype"
        value {
          type: DT_FLOAT
        }
      }
    }
    node {
      name: "metrics/acc/div_no_nan/ReadVariableOp_1"
      op: "ReadVariableOp"
      input: "count"
      input: "^metrics/acc/AssignAddVariableOp_1"
      attr {
        key: "_output_shapes"
        value {
          list {
            shape {
            }
          }
        }
      }
      attr {
        key: "dtype"
        value {
          type: DT_FLOAT
        }
      }
    }
    node {
      name: "metrics/acc/div_no_nan"
      op: "DivNoNan"
      input: "metrics/acc/div_no_nan/ReadVariableOp"
      input: "metrics/acc/div_no_nan/ReadVariableOp_1"
      attr {
        key: "T"
        value {
          type: DT_FLOAT
        }
      }
      attr {
        key: "_output_shapes"
        value {
          list {
            shape {
            }
          }
        }
      }
    }
    node {
      name: "metrics/acc/Identity"
      op: "Identity"
      input: "metrics/acc/div_no_nan"
      attr {
        key: "T"
        value {
          type: DT_FLOAT
        }
      }
      attr {
        key: "_output_shapes"
        value {
          list {
            shape {
            }
          }
        }
      }
    }
    node {
      name: "Const"
      op: "Const"
      attr {
        key: "_output_shapes"
        value {
          list {
            shape {
              dim {
                size: 1
              }
            }
          }
        }
      }
      attr {
        key: "dtype"
        value {
          type: DT_FLOAT
        }
      }
      attr {
        key: "value"
        value {
          tensor {
            dtype: DT_FLOAT
            tensor_shape {
              dim {
                size: 1
              }
            }
            float_val: 1.0
          }
        }
      }
    }
    node {
      name: "dense_sample_weights"
      op: "PlaceholderWithDefault"
      input: "Const"
      attr {
        key: "_output_shapes"
        value {
          list {
            shape {
              dim {
                size: -1
              }
            }
          }
        }
      }
      attr {
        key: "dtype"
        value {
          type: DT_FLOAT
        }
      }
      attr {
        key: "shape"
        value {
          shape {
            dim {
              size: -1
            }
          }
        }
      }
    }
    node {
      name: "loss/dense_loss/categorical_crossentropy/Const"
      op: "Const"
      attr {
        key: "_output_shapes"
        value {
          list {
            shape {
            }
          }
        }
      }
      attr {
        key: "dtype"
        value {
          type: DT_FLOAT
        }
      }
      attr {
        key: "value"
        value {
          tensor {
            dtype: DT_FLOAT
            tensor_shape {
            }
            float_val: 0.0
          }
        }
      }
    }
    node {
      name: "loss/dense_loss/categorical_crossentropy/softmax_cross_entropy_with_logits/Rank"
      op: "Const"
      attr {
        key: "_output_shapes"
        value {
          list {
            shape {
            }
          }
        }
      }
      attr {
        key: "dtype"
        value {
          type: DT_INT32
        }
      }
      attr {
        key: "value"
        value {
          tensor {
            dtype: DT_INT32
            tensor_shape {
            }
            int_val: 2
          }
        }
      }
    }
    node {
      name: "loss/dense_loss/categorical_crossentropy/softmax_cross_entropy_with_logits/Shape"
      op: "Shape"
      input: "dense/BiasAdd"
      attr {
        key: "T"
        value {
          type: DT_FLOAT
        }
      }
      attr {
        key: "_output_shapes"
        value {
          list {
            shape {
              dim {
                size: 2
              }
            }
          }
        }
      }
      attr {
        key: "out_type"
        value {
          type: DT_INT32
        }
      }
    }
    node {
      name: "loss/dense_loss/categorical_crossentropy/softmax_cross_entropy_with_logits/Rank_1"
      op: "Const"
      attr {
        key: "_output_shapes"
        value {
          list {
            shape {
            }
          }
        }
      }
      attr {
        key: "dtype"
        value {
          type: DT_INT32
        }
      }
      attr {
        key: "value"
        value {
          tensor {
            dtype: DT_INT32
            tensor_shape {
            }
            int_val: 2
          }
        }
      }
    }
    node {
      name: "loss/dense_loss/categorical_crossentropy/softmax_cross_entropy_with_logits/Shape_1"
      op: "Shape"
      input: "dense/BiasAdd"
      attr {
        key: "T"
        value {
          type: DT_FLOAT
        }
      }
      attr {
        key: "_output_shapes"
        value {
          list {
            shape {
              dim {
                size: 2
              }
            }
          }
        }
      }
      attr {
        key: "out_type"
        value {
          type: DT_INT32
        }
      }
    }
    node {
      name: "loss/dense_loss/categorical_crossentropy/softmax_cross_entropy_with_logits/Sub/y"
      op: "Const"
      attr {
        key: "_output_shapes"
        value {
          list {
            shape {
            }
          }
        }
      }
      attr {
        key: "dtype"
        value {
          type: DT_INT32
        }
      }
      attr {
        key: "value"
        value {
          tensor {
            dtype: DT_INT32
            tensor_shape {
            }
            int_val: 1
          }
        }
      }
    }
    node {
      name: "loss/dense_loss/categorical_crossentropy/softmax_cross_entropy_with_logits/Sub"
      op: "Sub"
      input: "loss/dense_loss/categorical_crossentropy/softmax_cross_entropy_with_logits/Rank_1"
      input: "loss/dense_loss/categorical_crossentropy/softmax_cross_entropy_with_logits/Sub/y"
      attr {
        key: "T"
        value {
          type: DT_INT32
        }
      }
      attr {
        key: "_output_shapes"
        value {
          list {
            shape {
            }
          }
        }
      }
    }
    node {
      name: "loss/dense_loss/categorical_crossentropy/softmax_cross_entropy_with_logits/Slice/begin"
      op: "Pack"
      input: "loss/dense_loss/categorical_crossentropy/softmax_cross_entropy_with_logits/Sub"
      attr {
        key: "N"
        value {
          i: 1
        }
      }
      attr {
        key: "T"
        value {
          type: DT_INT32
        }
      }
      attr {
        key: "_output_shapes"
        value {
          list {
            shape {
              dim {
                size: 1
              }
            }
          }
        }
      }
      attr {
        key: "axis"
        value {
          i: 0
        }
      }
    }
    node {
      name: "loss/dense_loss/categorical_crossentropy/softmax_cross_entropy_with_logits/Slice/size"
      op: "Const"
      attr {
        key: "_output_shapes"
        value {
          list {
            shape {
              dim {
                size: 1
              }
            }
          }
        }
      }
      attr {
        key: "dtype"
        value {
          type: DT_INT32
        }
      }
      attr {
        key: "value"
        value {
          tensor {
            dtype: DT_INT32
            tensor_shape {
              dim {
                size: 1
              }
            }
            int_val: 1
          }
        }
      }
    }
    node {
      name: "loss/dense_loss/categorical_crossentropy/softmax_cross_entropy_with_logits/Slice"
      op: "Slice"
      input: "loss/dense_loss/categorical_crossentropy/softmax_cross_entropy_with_logits/Shape_1"
      input: "loss/dense_loss/categorical_crossentropy/softmax_cross_entropy_with_logits/Slice/begin"
      input: "loss/dense_loss/categorical_crossentropy/softmax_cross_entropy_with_logits/Slice/size"
      attr {
        key: "Index"
        value {
          type: DT_INT32
        }
      }
      attr {
        key: "T"
        value {
          type: DT_INT32
        }
      }
      attr {
        key: "_output_shapes"
        value {
          list {
            shape {
              dim {
                size: 1
              }
            }
          }
        }
      }
    }
    node {
      name: "loss/dense_loss/categorical_crossentropy/softmax_cross_entropy_with_logits/concat/values_0"
      op: "Const"
      attr {
        key: "_output_shapes"
        value {
          list {
            shape {
              dim {
                size: 1
              }
            }
          }
        }
      }
      attr {
        key: "dtype"
        value {
          type: DT_INT32
        }
      }
      attr {
        key: "value"
        value {
          tensor {
            dtype: DT_INT32
            tensor_shape {
              dim {
                size: 1
              }
            }
            int_val: -1
          }
        }
      }
    }
    node {
      name: "loss/dense_loss/categorical_crossentropy/softmax_cross_entropy_with_logits/concat/axis"
      op: "Const"
      attr {
        key: "_output_shapes"
        value {
          list {
            shape {
            }
          }
        }
      }
      attr {
        key: "dtype"
        value {
          type: DT_INT32
        }
      }
      attr {
        key: "value"
        value {
          tensor {
            dtype: DT_INT32
            tensor_shape {
            }
            int_val: 0
          }
        }
      }
    }
    node {
      name: "loss/dense_loss/categorical_crossentropy/softmax_cross_entropy_with_logits/concat"
      op: "ConcatV2"
      input: "loss/dense_loss/categorical_crossentropy/softmax_cross_entropy_with_logits/concat/values_0"
      input: "loss/dense_loss/categorical_crossentropy/softmax_cross_entropy_with_logits/Slice"
      input: "loss/dense_loss/categorical_crossentropy/softmax_cross_entropy_with_logits/concat/axis"
      attr {
        key: "N"
        value {
          i: 2
        }
      }
      attr {
        key: "T"
        value {
          type: DT_INT32
        }
      }
      attr {
        key: "Tidx"
        value {
          type: DT_INT32
        }
      }
      attr {
        key: "_output_shapes"
        value {
          list {
            shape {
              dim {
                size: 2
              }
            }
          }
        }
      }
    }
    node {
      name: "loss/dense_loss/categorical_crossentropy/softmax_cross_entropy_with_logits/Reshape"
      op: "Reshape"
      input: "dense/BiasAdd"
      input: "loss/dense_loss/categorical_crossentropy/softmax_cross_entropy_with_logits/concat"
      attr {
        key: "T"
        value {
          type: DT_FLOAT
        }
      }
      attr {
        key: "Tshape"
        value {
          type: DT_INT32
        }
      }
      attr {
        key: "_output_shapes"
        value {
          list {
            shape {
              dim {
                size: -1
              }
              dim {
                size: -1
              }
            }
          }
        }
      }
    }
    node {
      name: "loss/dense_loss/categorical_crossentropy/softmax_cross_entropy_with_logits/Rank_2"
      op: "Const"
      attr {
        key: "_output_shapes"
        value {
          list {
            shape {
            }
          }
        }
      }
      attr {
        key: "dtype"
        value {
          type: DT_INT32
        }
      }
      attr {
        key: "value"
        value {
          tensor {
            dtype: DT_INT32
            tensor_shape {
            }
            int_val: 2
          }
        }
      }
    }
    node {
      name: "loss/dense_loss/categorical_crossentropy/softmax_cross_entropy_with_logits/Shape_2"
      op: "Shape"
      input: "dense_target"
      attr {
        key: "T"
        value {
          type: DT_FLOAT
        }
      }
      attr {
        key: "_output_shapes"
        value {
          list {
            shape {
              dim {
                size: 2
              }
            }
          }
        }
      }
      attr {
        key: "out_type"
        value {
          type: DT_INT32
        }
      }
    }
    node {
      name: "loss/dense_loss/categorical_crossentropy/softmax_cross_entropy_with_logits/Sub_1/y"
      op: "Const"
      attr {
        key: "_output_shapes"
        value {
          list {
            shape {
            }
          }
        }
      }
      attr {
        key: "dtype"
        value {
          type: DT_INT32
        }
      }
      attr {
        key: "value"
        value {
          tensor {
            dtype: DT_INT32
            tensor_shape {
            }
            int_val: 1
          }
        }
      }
    }
    node {
      name: "loss/dense_loss/categorical_crossentropy/softmax_cross_entropy_with_logits/Sub_1"
      op: "Sub"
      input: "loss/dense_loss/categorical_crossentropy/softmax_cross_entropy_with_logits/Rank_2"
      input: "loss/dense_loss/categorical_crossentropy/softmax_cross_entropy_with_logits/Sub_1/y"
      attr {
        key: "T"
        value {
          type: DT_INT32
        }
      }
      attr {
        key: "_output_shapes"
        value {
          list {
            shape {
            }
          }
        }
      }
    }
    node {
      name: "loss/dense_loss/categorical_crossentropy/softmax_cross_entropy_with_logits/Slice_1/begin"
      op: "Pack"
      input: "loss/dense_loss/categorical_crossentropy/softmax_cross_entropy_with_logits/Sub_1"
      attr {
        key: "N"
        value {
          i: 1
        }
      }
      attr {
        key: "T"
        value {
          type: DT_INT32
        }
      }
      attr {
        key: "_output_shapes"
        value {
          list {
            shape {
              dim {
                size: 1
              }
            }
          }
        }
      }
      attr {
        key: "axis"
        value {
          i: 0
        }
      }
    }
    node {
      name: "loss/dense_loss/categorical_crossentropy/softmax_cross_entropy_with_logits/Slice_1/size"
      op: "Const"
      attr {
        key: "_output_shapes"
        value {
          list {
            shape {
              dim {
                size: 1
              }
            }
          }
        }
      }
      attr {
        key: "dtype"
        value {
          type: DT_INT32
        }
      }
      attr {
        key: "value"
        value {
          tensor {
            dtype: DT_INT32
            tensor_shape {
              dim {
                size: 1
              }
            }
            int_val: 1
          }
        }
      }
    }
    node {
      name: "loss/dense_loss/categorical_crossentropy/softmax_cross_entropy_with_logits/Slice_1"
      op: "Slice"
      input: "loss/dense_loss/categorical_crossentropy/softmax_cross_entropy_with_logits/Shape_2"
      input: "loss/dense_loss/categorical_crossentropy/softmax_cross_entropy_with_logits/Slice_1/begin"
      input: "loss/dense_loss/categorical_crossentropy/softmax_cross_entropy_with_logits/Slice_1/size"
      attr {
        key: "Index"
        value {
          type: DT_INT32
        }
      }
      attr {
        key: "T"
        value {
          type: DT_INT32
        }
      }
      attr {
        key: "_output_shapes"
        value {
          list {
            shape {
              dim {
                size: 1
              }
            }
          }
        }
      }
    }
    node {
      name: "loss/dense_loss/categorical_crossentropy/softmax_cross_entropy_with_logits/concat_1/values_0"
      op: "Const"
      attr {
        key: "_output_shapes"
        value {
          list {
            shape {
              dim {
                size: 1
              }
            }
          }
        }
      }
      attr {
        key: "dtype"
        value {
          type: DT_INT32
        }
      }
      attr {
        key: "value"
        value {
          tensor {
            dtype: DT_INT32
            tensor_shape {
              dim {
                size: 1
              }
            }
            int_val: -1
          }
        }
      }
    }
    node {
      name: "loss/dense_loss/categorical_crossentropy/softmax_cross_entropy_with_logits/concat_1/axis"
      op: "Const"
      attr {
        key: "_output_shapes"
        value {
          list {
            shape {
            }
          }
        }
      }
      attr {
        key: "dtype"
        value {
          type: DT_INT32
        }
      }
      attr {
        key: "value"
        value {
          tensor {
            dtype: DT_INT32
            tensor_shape {
            }
            int_val: 0
          }
        }
      }
    }
    node {
      name: "loss/dense_loss/categorical_crossentropy/softmax_cross_entropy_with_logits/concat_1"
      op: "ConcatV2"
      input: "loss/dense_loss/categorical_crossentropy/softmax_cross_entropy_with_logits/concat_1/values_0"
      input: "loss/dense_loss/categorical_crossentropy/softmax_cross_entropy_with_logits/Slice_1"
      input: "loss/dense_loss/categorical_crossentropy/softmax_cross_entropy_with_logits/concat_1/axis"
      attr {
        key: "N"
        value {
          i: 2
        }
      }
      attr {
        key: "T"
        value {
          type: DT_INT32
        }
      }
      attr {
        key: "Tidx"
        value {
          type: DT_INT32
        }
      }
      attr {
        key: "_output_shapes"
        value {
          list {
            shape {
              dim {
                size: 2
              }
            }
          }
        }
      }
    }
    node {
      name: "loss/dense_loss/categorical_crossentropy/softmax_cross_entropy_with_logits/Reshape_1"
      op: "Reshape"
      input: "dense_target"
      input: "loss/dense_loss/categorical_crossentropy/softmax_cross_entropy_with_logits/concat_1"
      attr {
        key: "T"
        value {
          type: DT_FLOAT
        }
      }
      attr {
        key: "Tshape"
        value {
          type: DT_INT32
        }
      }
      attr {
…
            string_val: "training/Adam/learning_rate"
          }
        }
      }
    }
    node {
      name: "save/RestoreV2/shape_and_slices"
      op: "Const"
      device: "/device:CPU:0"
      attr {
        key: "_output_shapes"
        value {
          list {
            shape {
              dim {
                size: 24
              }
            }
          }
        }
      }
      attr {
        key: "dtype"
        value {
          type: DT_STRING
        }
      }
      attr {
        key: "value"
        value {
          tensor {
            dtype: DT_STRING
            tensor_shape {
              dim {
                size: 24
              }
            }
            string_val: ""
            string_val: ""
            string_val: ""
            string_val: ""
            string_val: ""
            string_val: ""
            string_val: ""
            string_val: ""
            string_val: ""
            string_val: ""
            string_val: ""
            string_val: ""
            string_val: ""
            string_val: ""
            string_val: ""
            string_val: ""
            string_val: ""
            string_val: ""
            string_val: ""
            string_val: ""
            string_val: ""
            string_val: ""
            string_val: ""
            string_val: ""
          }
        }
      }
    }
    node {
      name: "save/RestoreV2"
      op: "RestoreV2"
      input: "save/Const"
      input: "save/RestoreV2/tensor_names"
      input: "save/RestoreV2/shape_and_slices"
      device: "/device:CPU:0"
      attr {
        key: "_output_shapes"
        value {
          list {
            shape {
              unknown_rank: true
            }
            shape {
              unknown_rank: true
            }
            shape {
              unknown_rank: true
            }
            shape {
              unknown_rank: true
            }
            shape {
              unknown_rank: true
            }
            shape {
              unknown_rank: true
            }
            shape {
              unknown_rank: true
            }
            shape {
              unknown_rank: true
            }
            shape {
              unknown_rank: true
            }
            shape {
              unknown_rank: true
            }
            shape {
              unknown_rank: true
            }
            shape {
              unknown_rank: true
            }
            shape {
              unknown_rank: true
            }
            shape {
              unknown_rank: true
            }
            shape {
              unknown_rank: true
            }
            shape {
              unknown_rank: true
            }
            shape {
              unknown_rank: true
            }
            shape {
              unknown_rank: true
            }
            shape {
              unknown_rank: true
            }
            shape {
              unknown_rank: true
            }
            shape {
              unknown_rank: true
            }
            shape {
              unknown_rank: true
            }
            shape {
              unknown_rank: true
            }
            shape {
              unknown_rank: true
            }
          }
        }
      }
      attr {
        key: "dtypes"
        value {
          list {
            type: DT_FLOAT
            type: DT_FLOAT
            type: DT_FLOAT
            type: DT_FLOAT
            type: DT_FLOAT
            type: DT_FLOAT
            type: DT_FLOAT
            type: DT_FLOAT
            type: DT_FLOAT
            type: DT_FLOAT
            type: DT_FLOAT
            type: DT_FLOAT
            type: DT_FLOAT
            type: DT_FLOAT
            type: DT_FLOAT
            type: DT_FLOAT
            type: DT_FLOAT
            type: DT_FLOAT
            type: DT_FLOAT
            type: DT_FLOAT
            type: DT_FLOAT
            type: DT_FLOAT
            type: DT_INT64
            type: DT_FLOAT
          }
        }
      }
    }
    node {
      name: "save/Identity_1"
      op: "Identity"
      input: "save/RestoreV2"
      attr {
        key: "T"
        value {
          type: DT_FLOAT
        }
      }
      attr {
        key: "_output_shapes"
        value {
          list {
            shape {
              unknown_rank: true
            }
          }
        }
      }
    }
    node {
      name: "save/AssignVariableOp"
      op: "AssignVariableOp"
      input: "conv2d/bias"
      input: "save/Identity_1"
      attr {
        key: "dtype"
        value {
          type: DT_FLOAT
        }
      }
    }
    node {
      name: "save/Identity_2"
      op: "Identity"
      input: "save/RestoreV2:1"
      attr {
        key: "T"
        value {
          type: DT_FLOAT
        }
      }
      attr {
        key: "_output_shapes"
        value {
          list {
            shape {
              unknown_rank: true
            }
          }
        }
      }
    }
    node {
      name: "save/AssignVariableOp_1"
      op: "AssignVariableOp"
      input: "conv2d/kernel"
      input: "save/Identity_2"
      attr {
        key: "dtype"
        value {
          type: DT_FLOAT
        }
      }
    }
    node {
      name: "save/Identity_3"
      op: "Identity"
      input: "save/RestoreV2:2"
      attr {
        key: "T"
        value {
          type: DT_FLOAT
        }
      }
      attr {
        key: "_output_shapes"
        value {
          list {
            shape {
              unknown_rank: true
            }
          }
        }
      }
    }
    node {
      name: "save/AssignVariableOp_2"
      op: "AssignVariableOp"
      input: "conv2d_1/bias"
      input: "save/Identity_3"
      attr {
        key: "dtype"
        value {
          type: DT_FLOAT
        }
      }
    }
    node {
      name: "save/Identity_4"
      op: "Identity"
      input: "save/RestoreV2:3"
      attr {
        key: "T"
        value {
          type: DT_FLOAT
        }
      }
      attr {
        key: "_output_shapes"
        value {
          list {
            shape {
              unknown_rank: true
            }
          }
        }
      }
    }
    node {
      name: "save/AssignVariableOp_3"
      op: "AssignVariableOp"
      input: "conv2d_1/kernel"
      input: "save/Identity_4"
      attr {
        key: "dtype"
        value {
          type: DT_FLOAT
        }
      }
    }
    node {
      name: "save/Identity_5"
      op: "Identity"
      input: "save/RestoreV2:4"
      attr {
        key: "T"
        value {
          type: DT_FLOAT
        }
      }
      attr {
        key: "_output_shapes"
        value {
          list {
            shape {
              unknown_rank: true
            }
          }
        }
      }
    }
    node {
      name: "save/AssignVariableOp_4"
      op: "AssignVariableOp"
      input: "dense/bias"
      input: "save/Identity_5"
      attr {
        key: "dtype"
        value {
          type: DT_FLOAT
        }
      }
    }
    node {
      name: "save/Identity_6"
      op: "Identity"
      input: "save/RestoreV2:5"
      attr {
        key: "T"
        value {
          type: DT_FLOAT
        }
      }
      attr {
        key: "_output_shapes"
        value {
          list {
            shape {
              unknown_rank: true
            }
          }
        }
      }
    }
    node {
      name: "save/AssignVariableOp_5"
      op: "AssignVariableOp"
      input: "dense/kernel"
      input: "save/Identity_6"
      attr {
        key: "dtype"
        value {
          type: DT_FLOAT
        }
      }
    }
    node {
      name: "save/Identity_7"
      op: "Identity"
      input: "save/RestoreV2:6"
      attr {
        key: "T"
        value {
          type: DT_FLOAT
        }
      }
      attr {
        key: "_output_shapes"
        value {
          list {
            shape {
              unknown_rank: true
            }
          }
        }
      }
    }
    node {
      name: "save/AssignVariableOp_6"
      op: "AssignVariableOp"
      input: "training/Adam/beta_1"
      input: "save/Identity_7"
      attr {
        key: "dtype"
        value {
          type: DT_FLOAT
        }
      }
    }
    node {
      name: "save/Identity_8"
      op: "Identity"
      input: "save/RestoreV2:7"
      attr {
        key: "T"
        value {
          type: DT_FLOAT
        }
      }
      attr {
        key: "_output_shapes"
        value {
          list {
            shape {
              unknown_rank: true
            }
          }
        }
      }
    }
    node {
      name: "save/AssignVariableOp_7"
      op: "AssignVariableOp"
      input: "training/Adam/beta_2"
      input: "save/Identity_8"
      attr {
        key: "dtype"
        value {
          type: DT_FLOAT
        }
      }
    }
    node {
      name: "save/Identity_9"
      op: "Identity"
      input: "save/RestoreV2:8"
      attr {
        key: "T"
        value {
          type: DT_FLOAT
        }
      }
      attr {
        key: "_output_shapes"
        value {
          list {
            shape {
              unknown_rank: true
            }
          }
        }
      }
    }
    node {
      name: "save/AssignVariableOp_8"
      op: "AssignVariableOp"
      input: "training/Adam/conv2d/bias/m"
      input: "save/Identity_9"
      attr {
        key: "dtype"
        value {
          type: DT_FLOAT
        }
      }
    }
    node {
      name: "save/Identity_10"
      op: "Identity"
      input: "save/RestoreV2:9"
      attr {
        key: "T"
        value {
          type: DT_FLOAT
        }
      }
      attr {
        key: "_output_shapes"
        value {
          list {
            shape {
              unknown_rank: true
            }
          }
        }
      }
    }
    node {
      name: "save/AssignVariableOp_9"
      op: "AssignVariableOp"
      input: "training/Adam/conv2d/bias/v"
      input: "save/Identity_10"
      attr {
        key: "dtype"
        value {
          type: DT_FLOAT
        }
      }
    }
    node {
      name: "save/Identity_11"
      op: "Identity"
      input: "save/RestoreV2:10"
      attr {
        key: "T"
        value {
          type: DT_FLOAT
        }
      }
      attr {
        key: "_output_shapes"
        value {
          list {
            shape {
              unknown_rank: true
            }
          }
        }
      }
    }
    node {
      name: "save/AssignVariableOp_10"
      op: "AssignVariableOp"
      input: "training/Adam/conv2d/kernel/m"
      input: "save/Identity_11"
      attr {
        key: "dtype"
        value {
          type: DT_FLOAT
        }
      }
    }
    node {
      name: "save/Identity_12"
      op: "Identity"
      input: "save/RestoreV2:11"
      attr {
        key: "T"
        value {
          type: DT_FLOAT
        }
      }
      attr {
        key: "_output_shapes"
        value {
          list {
            shape {
              unknown_rank: true
            }
          }
        }
      }
    }
    node {
      name: "save/AssignVariableOp_11"
      op: "AssignVariableOp"
      input: "training/Adam/conv2d/kernel/v"
      input: "save/Identity_12"
      attr {
        key: "dtype"
        value {
          type: DT_FLOAT
        }
      }
    }
    node {
      name: "save/Identity_13"
      op: "Identity"
      input: "save/RestoreV2:12"
      attr {
        key: "T"
        value {
          type: DT_FLOAT
        }
      }
      attr {
        key: "_output_shapes"
        value {
          list {
            shape {
              unknown_rank: true
            }
          }
        }
      }
    }
    node {
      name: "save/AssignVariableOp_12"
      op: "AssignVariableOp"
      input: "training/Adam/conv2d_1/bias/m"
      input: "save/Identity_13"
      attr {
        key: "dtype"
        value {
          type: DT_FLOAT
        }
      }
    }
    node {
      name: "save/Identity_14"
      op: "Identity"
      input: "save/RestoreV2:13"
      attr {
        key: "T"
        value {
          type: DT_FLOAT
        }
      }
      attr {
        key: "_output_shapes"
        value {
          list {
            shape {
              unknown_rank: true
            }
          }
        }
      }
    }
    node {
      name: "save/AssignVariableOp_13"
      op: "AssignVariableOp"
      input: "training/Adam/conv2d_1/bias/v"
      input: "save/Identity_14"
      attr {
        key: "dtype"
        value {
          type: DT_FLOAT
        }
      }
    }
    node {
      name: "save/Identity_15"
      op: "Identity"
      input: "save/RestoreV2:14"
      attr {
        key: "T"
        value {
          type: DT_FLOAT
        }
      }
      attr {
        key: "_output_shapes"
        value {
          list {
            shape {
              unknown_rank: true
            }
          }
        }
      }
    }
    node {
      name: "save/AssignVariableOp_14"
      op: "AssignVariableOp"
      input: "training/Adam/conv2d_1/kernel/m"
      input: "save/Identity_15"
      attr {
        key: "dtype"
        value {
          type: DT_FLOAT
        }
      }
    }
    node {
      name: "save/Identity_16"
      op: "Identity"
      input: "save/RestoreV2:15"
      attr {
        key: "T"
        value {
          type: DT_FLOAT
        }
      }
      attr {
        key: "_output_shapes"
        value {
          list {
            shape {
              unknown_rank: true
            }
          }
        }
      }
    }
    node {
      name: "save/AssignVariableOp_15"
      op: "AssignVariableOp"
      input: "training/Adam/conv2d_1/kernel/v"
      input: "save/Identity_16"
      attr {
        key: "dtype"
        value {
          type: DT_FLOAT
        }
      }
    }
    node {
      name: "save/Identity_17"
      op: "Identity"
      input: "save/RestoreV2:16"
      attr {
        key: "T"
        value {
          type: DT_FLOAT
        }
      }
      attr {
        key: "_output_shapes"
        value {
          list {
            shape {
              unknown_rank: true
            }
          }
        }
      }
    }
    node {
      name: "save/AssignVariableOp_16"
      op: "AssignVariableOp"
      input: "training/Adam/decay"
      input: "save/Identity_17"
      attr {
        key: "dtype"
        value {
          type: DT_FLOAT
        }
      }
    }
    node {
      name: "save/Identity_18"
      op: "Identity"
      input: "save/RestoreV2:17"
      attr {
        key: "T"
        value {
          type: DT_FLOAT
        }
      }
      attr {
        key: "_output_shapes"
        value {
          list {
            shape {
              unknown_rank: true
            }
          }
        }
      }
    }
    node {
      name: "save/AssignVariableOp_17"
      op: "AssignVariableOp"
      input: "training/Adam/dense/bias/m"
      input: "save/Identity_18"
      attr {
        key: "dtype"
        value {
          type: DT_FLOAT
        }
      }
    }
    node {
      name: "save/Identity_19"
      op: "Identity"
      input: "save/RestoreV2:18"
      attr {
        key: "T"
        value {
          type: DT_FLOAT
        }
      }
      attr {
        key: "_output_shapes"
        value {
          list {
            shape {
              unknown_rank: true
            }
          }
        }
      }
    }
    node {
      name: "save/AssignVariableOp_18"
      op: "AssignVariableOp"
      input: "training/Adam/dense/bias/v"
      input: "save/Identity_19"
      attr {
        key: "dtype"
        value {
          type: DT_FLOAT
        }
      }
    }
    node {
      name: "save/Identity_20"
      op: "Identity"
      input: "save/RestoreV2:19"
      attr {
        key: "T"
        value {
          type: DT_FLOAT
        }
      }
      attr {
        key: "_output_shapes"
        value {
          list {
            shape {
              unknown_rank: true
            }
          }
        }
      }
    }
    node {
      name: "save/AssignVariableOp_19"
      op: "AssignVariableOp"
      input: "training/Adam/dense/kernel/m"
      input: "save/Identity_20"
      attr {
        key: "dtype"
        value {
          type: DT_FLOAT
        }
      }
    }
    node {
      name: "save/Identity_21"
      op: "Identity"
      input: "save/RestoreV2:20"
      attr {
        key: "T"
        value {
          type: DT_FLOAT
        }
      }
      attr {
        key: "_output_shapes"
        value {
          list {
            shape {
              unknown_rank: true
            }
          }
        }
      }
    }
    node {
      name: "save/AssignVariableOp_20"
      op: "AssignVariableOp"
      input: "training/Adam/dense/kernel/v"
      input: "save/Identity_21"
      attr {
        key: "dtype"
        value {
          type: DT_FLOAT
        }
      }
    }
    node {
      name: "save/Identity_22"
      op: "Identity"
      input: "save/RestoreV2:21"
      attr {
        key: "T"
        value {
          type: DT_FLOAT
        }
      }
      attr {
        key: "_output_shapes"
        value {
          list {
            shape {
              unknown_rank: true
            }
          }
        }
      }
    }
    node {
      name: "save/AssignVariableOp_21"
      op: "AssignVariableOp"
      input: "training/Adam/epsilon"
      input: "save/Identity_22"
      attr {
        key: "dtype"
        value {
          type: DT_FLOAT
        }
      }
    }
    node {
      name: "save/Identity_23"
      op: "Identity"
      input: "save/RestoreV2:22"
      attr {
        key: "T"
        value {
          type: DT_INT64
        }
      }
      attr {
        key: "_output_shapes"
        value {
          list {
            shape {
              unknown_rank: true
            }
          }
        }
      }
    }
    node {
      name: "save/AssignVariableOp_22"
      op: "AssignVariableOp"
      input: "training/Adam/iter"
      input: "save/Identity_23"
      attr {
        key: "dtype"
        value {
          type: DT_INT64
        }
      }
    }
    node {
      name: "save/Identity_24"
      op: "Identity"
      input: "save/RestoreV2:23"
      attr {
        key: "T"
        value {
          type: DT_FLOAT
        }
      }
      attr {
        key: "_output_shapes"
        value {
          list {
            shape {
              unknown_rank: true
            }
          }
        }
      }
    }
    node {
      name: "save/AssignVariableOp_23"
      op: "AssignVariableOp"
      input: "training/Adam/learning_rate"
      input: "save/Identity_24"
      attr {
        key: "dtype"
        value {
          type: DT_FLOAT
        }
      }
    }
    node {
      name: "save/restore_shard"
      op: "NoOp"
      input: "^save/AssignVariableOp"
      input: "^save/AssignVariableOp_1"
      input: "^save/AssignVariableOp_10"
      input: "^save/AssignVariableOp_11"
      input: "^save/AssignVariableOp_12"
      input: "^save/AssignVariableOp_13"
      input: "^save/AssignVariableOp_14"
      input: "^save/AssignVariableOp_15"
      input: "^save/AssignVariableOp_16"
      input: "^save/AssignVariableOp_17"
      input: "^save/AssignVariableOp_18"
      input: "^save/AssignVariableOp_19"
      input: "^save/AssignVariableOp_2"
      input: "^save/AssignVariableOp_20"
      input: "^save/AssignVariableOp_21"
      input: "^save/AssignVariableOp_22"
      input: "^save/AssignVariableOp_23"
      input: "^save/AssignVariableOp_3"
      input: "^save/AssignVariableOp_4"
      input: "^save/AssignVariableOp_5"
      input: "^save/AssignVariableOp_6"
      input: "^save/AssignVariableOp_7"
      input: "^save/AssignVariableOp_8"
      input: "^save/AssignVariableOp_9"
    }
    node {
      name: "save/restore_all"
      op: "NoOp"
      input: "^save/restore_shard"
    }
    versions {
      producer: 29
    }
  }
  saver_def {
    filename_tensor_name: "save/Const:0"
    save_tensor_name: "save/Identity:0"
    restore_op_name: "save/restore_all"
    max_to_keep: 5
    sharded: true
    keep_checkpoint_every_n_hours: 10000.0
    version: V2
  }
  collection_def {
    key: "cond_context"
    value {
      bytes_list {
        value: "\n\026dropout/cond/cond_text\022\026dropout/cond/pred_id:0\032\027dropout/cond/switch_t:0 \001*\214\006\n\017conv2d_1/Relu:0\n\033dropout/cond/dropout/Cast:0\n#dropout/cond/dropout/GreaterEqual:0\n#dropout/cond/dropout/Shape/Switch:1\n\034dropout/cond/dropout/Shape:0\n\032dropout/cond/dropout/mul:0\n\034dropout/cond/dropout/mul_1:0\n3dropout/cond/dropout/random_uniform/RandomUniform:0\n)dropout/cond/dropout/random_uniform/max:0\n)dropout/cond/dropout/random_uniform/min:0\n)dropout/cond/dropout/random_uniform/mul:0\n)dropout/cond/dropout/random_uniform/sub:0\n%dropout/cond/dropout/random_uniform:0\n\033dropout/cond/dropout/rate:0\n\034dropout/cond/dropout/sub/x:0\n\032dropout/cond/dropout/sub:0\n dropout/cond/dropout/truediv/x:0\n\036dropout/cond/dropout/truediv:0\n\026dropout/cond/pred_id:0\n\027dropout/cond/switch_t:0\0220\n\026dropout/cond/pred_id:0\022\026dropout/cond/pred_id:0\0226\n\017conv2d_1/Relu:0\022#dropout/cond/dropout/Shape/Switch:1"
        value: "\n\030dropout/cond/cond_text_1\022\026dropout/cond/pred_id:0\032\027dropout/cond/switch_f:0*\340\001\n\017conv2d_1/Relu:0\n\036dropout/cond/Identity/Switch:0\n\027dropout/cond/Identity:0\n\026dropout/cond/pred_id:0\n\027dropout/cond/switch_f:0\0220\n\026dropout/cond/pred_id:0\022\026dropout/cond/pred_id:0\0221\n\017conv2d_1/Relu:0\022\036dropout/cond/Identity/Switch:0"
        value: "\nvloss/dense_loss/categorical_crossentropy/weighted_loss/broadcast_weights/assert_broadcastable/is_valid_shape/cond_text\022vloss/dense_loss/categorical_crossentropy/weighted_loss/broadcast_weights/assert_broadcastable/is_valid_shape/pred_id:0\032wloss/dense_loss/categorical_crossentropy/weighted_loss/broadcast_weights/assert_broadcastable/is_valid_shape/switch_t:0 \001*\250\010\niloss/dense_loss/categorical_crossentropy/weighted_loss/broadcast_weights/assert_broadcastable/is_scalar:0\nwloss/dense_loss/categorical_crossentropy/weighted_loss/broadcast_weights/assert_broadcastable/is_valid_shape/Switch_1:0\nwloss/dense_loss/categorical_crossentropy/weighted_loss/broadcast_weights/assert_broadcastable/is_valid_shape/Switch_1:1\nvloss/dense_loss/categorical_crossentropy/weighted_loss/broadcast_weights/assert_broadcastable/is_valid_shape/pred_id:0\nwloss/dense_loss/categorical_crossentropy/weighted_loss/broadcast_weights/assert_broadcastable/is_valid_shape/switch_t:0\022\344\001\niloss/dense_loss/categorical_crossentropy/weighted_loss/broadcast_weights/assert_broadcastable/is_scalar:0\022wloss/dense_loss/categorical_crossentropy/weighted_loss/broadcast_weights/assert_broadcastable/is_valid_shape/Switch_1:1\022\360\001\nvloss/dense_loss/categorical_crossentropy/weighted_loss/broadcast_weights/assert_broadcastable/is_valid_shape/pred_id:0\022vloss/dense_loss/categorical_crossentropy/weighted_loss/broadcast_weights/assert_broadcastable/is_valid_shape/pred_id:0"
        value: "\nxloss/dense_loss/categorical_crossentropy/weighted_loss/broadcast_weights/assert_broadcastable/is_valid_shape/cond_text_1\022vloss/dense_loss/categorical_crossentropy/weighted_loss/broadcast_weights/assert_broadcastable/is_valid_shape/pred_id:0\032wloss/dense_loss/categorical_crossentropy/weighted_loss/broadcast_weights/assert_broadcastable/is_valid_shape/switch_f:0*\2667\n\216\001loss/dense_loss/categorical_crossentropy/weighted_loss/broadcast_weights/assert_broadcastable/is_valid_shape/has_valid_nonscalar_shape/Merge:0\n\216\001loss/dense_loss/categorical_crossentropy/weighted_loss/broadcast_weights/assert_broadcastable/is_valid_shape/has_valid_nonscalar_shape/Merge:1\n\217\001loss/dense_loss/categorical_crossentropy/weighted_loss/broadcast_weights/assert_broadcastable/is_valid_shape/has_valid_nonscalar_shape/Switch:0\n\217\001loss/dense_loss/categorical_crossentropy/weighted_loss/broadcast_weights/assert_broadcastable/is_valid_shape/has_valid_nonscalar_shape/Switch:1\n\221\001loss/dense_loss/categorical_crossentropy/weighted_loss/broadcast_weights/assert_broadcastable/is_valid_shape/has_valid_nonscalar_shape/Switch_1:0\n\221\001loss/dense_loss/categorical_crossentropy/weighted_loss/broadcast_weights/assert_broadcastable/is_valid_shape/has_valid_nonscalar_shape/Switch_1:1\n\262\001loss/dense_loss/categorical_crossentropy/weighted_loss/broadcast_weights/assert_broadcastable/is_valid_shape/has_valid_nonscalar_shape/has_invalid_dims/DenseToDenseSetOperation:0\n\262\001loss/dense_loss/categorical_crossentropy/weighted_loss/broadcast_weights/assert_broadcastable/is_valid_shape/has_valid_nonscalar_shape/has_invalid_dims/DenseToDenseSetOperation:1\n\262\001loss/dense_loss/categorical_crossentropy/weighted_loss/broadcast_weights/assert_broadcastable/is_valid_shape/has_valid_nonscalar_shape/has_invalid_dims/DenseToDenseSetOperation:2\n\253\001loss/dense_loss/categorical_crossentropy/weighted_loss/broadcast_weights/assert_broadcastable/is_valid_shape/has_valid_nonscalar_shape/has_invalid_dims/ExpandDims/Switch:0\n\255\001loss/dense_loss/categorical_crossentropy/weighted_loss/broadcast_weights/assert_broadcastable/is_valid_shape/has_valid_nonscalar_shape/has_invalid_dims/ExpandDims/Switch_1:1\n\250\001loss/dense_loss/categorical_crossentropy/weighted_loss/broadcast_weights/assert_broadcastable/is_valid_shape/has_valid_nonscalar_shape/has_invalid_dims/ExpandDims/dim:0\n\244\001loss/dense_loss/categorical_crossentropy/weighted_loss/broadcast_weights/assert_broadcastable/is_valid_shape/has_valid_nonscalar_shape/has_invalid_dims/ExpandDims:0\n\255\001loss/dense_loss/categorical_crossentropy/weighted_loss/broadcast_weights/assert_broadcastable/is_valid_shape/has_valid_nonscalar_shape/has_invalid_dims/ExpandDims_1/Switch:0\n\257\001loss/dense_loss/categorical_crossentropy/weighted_loss/broadcast_weights/assert_broadcastable/is_valid_shape/has_valid_nonscalar_shape/has_invalid_dims/ExpandDims_1/Switch_1:1\n\252\001loss/dense_loss/categorical_crossentropy/weighted_loss/broadcast_weights/assert_broadcastable/is_valid_shape/has_valid_nonscalar_shape/has_invalid_dims/ExpandDims_1/dim:0\n\246\001loss/dense_loss/categorical_crossentropy/weighted_loss/broadcast_weights/assert_broadcastable/is_valid_shape/has_valid_nonscalar_shape/has_invalid_dims/ExpandDims_1:0\n\245\001loss/dense_loss/categorical_crossentropy/weighted_loss/broadcast_weights/assert_broadcastable/is_valid_shape/has_valid_nonscalar_shape/has_invalid_dims/concat/axis:0\n\240\001loss/dense_loss/categorical_crossentropy/weighted_loss/broadcast_weights/assert_broadcastable/is_valid_shape/has_valid_nonscalar_shape/has_invalid_dims/concat:0\n\252\001loss/dense_loss/categorical_crossentropy/weighted_loss/broadcast_weights/assert_broadcastable/is_valid_shape/has_valid_nonscalar_shape/has_invalid_dims/num_invalid_dims:0\n\251\001loss/dense_loss/categorical_crossentropy/weighted_loss/broadcast_weights/assert_broadcastable/is_valid_shape/has_valid_nonscalar_shape/has_invalid_dims/ones_like/Const:0\n\251\001loss/dense_loss/categorical_crossentropy/weighted_loss/broadcast_weights/assert_broadcastable/is_valid_shape/has_valid_nonscalar_shape/has_invalid_dims/ones_like/Shape:0\n\243\001loss/dense_loss/categorical_crossentropy/weighted_loss/broadcast_weights/assert_broadcastable/is_valid_shape/has_valid_nonscalar_shape/has_invalid_dims/ones_like:0\n\233\001loss/dense_loss/categorical_crossentropy/weighted_loss/broadcast_weights/assert_broadcastable/is_valid_shape/has_valid_nonscalar_shape/has_invalid_dims/x:0\n\231\001loss/dense_loss/categorical_crossentropy/weighted_loss/broadcast_weights/assert_broadcastable/is_valid_shape/has_valid_nonscalar_shape/has_invalid_dims:0\n\234\001loss/dense_loss/categorical_crossentropy/weighted_loss/broadcast_weights/assert_broadcastable/is_valid_shape/has_valid_nonscalar_shape/is_same_rank/Switch:0\n\236\001loss/dense_loss/categorical_crossentropy/weighted_loss/broadcast_weights/assert_broadcastable/is_valid_shape/has_valid_nonscalar_shape/is_same_rank/Switch_1:0\n\225\001loss/dense_loss/categorical_crossentropy/weighted_loss/broadcast_weights/assert_broadcastable/is_valid_shape/has_valid_nonscalar_shape/is_same_rank:0\n\220\001loss/dense_loss/categorical_crossentropy/weighted_loss/broadcast_weights/assert_broadcastable/is_valid_shape/has_valid_nonscalar_shape/pred_id:0\n\221\001loss/dense_loss/categorical_crossentropy/weighted_loss/broadcast_weights/assert_broadcastable/is_valid_shape/has_valid_nonscalar_shape/switch_f:0\n\221\001loss/dense_loss/categorical_crossentropy/weighted_loss/broadcast_weights/assert_broadcastable/is_valid_shape/has_valid_nonscalar_shape/switch_t:0\nvloss/dense_loss/categorical_crossentropy/weighted_loss/broadcast_weights/assert_broadcastable/is_valid_shape/pred_id:0\nwloss/dense_loss/categorical_crossentropy/weighted_loss/broadcast_weights/assert_broadcastable/is_valid_shape/switch_f:0\nkloss/dense_loss/categorical_crossentropy/weighted_loss/broadcast_weights/assert_broadcastable/values/rank:0\nlloss/dense_loss/categorical_crossentropy/weighted_loss/broadcast_weights/assert_broadcastable/values/shape:0\nlloss/dense_loss/categorical_crossentropy/weighted_loss/broadcast_weights/assert_broadcastable/weights/rank:0\nmloss/dense_loss/categorical_crossentropy/weighted_loss/broadcast_weights/assert_broadcastable/weights/shape:0\022\214\002\nkloss/dense_loss/categorical_crossentropy/weighted_loss/broadcast_weights/assert_broadcastable/values/rank:0\022\234\001loss/dense_loss/categorical_crossentropy/weighted_loss/broadcast_weights/assert_broadcastable/is_valid_shape/has_valid_nonscalar_shape/is_same_rank/Switch:0\022\237\002\nmloss/dense_loss/categorical_crossentropy/weighted_loss/broadcast_weights/assert_broadcastable/weights/shape:0\022\255\001loss/dense_loss/categorical_crossentropy/weighted_loss/broadcast_weights/assert_broadcastable/is_valid_shape/has_valid_nonscalar_shape/has_invalid_dims/ExpandDims_1/Switch:0\022\234\002\nlloss/dense_loss/categorical_crossentropy/weighted_loss/broadcast_weights/assert_broadcastable/values/shape:0\022\253\001loss/dense_loss/categorical_crossentropy/weighted_loss/broadcast_weights/assert_broadcastable/is_valid_shape/has_valid_nonscalar_shape/has_invalid_dims/ExpandDims/Switch:0\022\217\002\nlloss/dense_loss/categorical_crossentropy/weighted_loss/broadcast_weights/assert_broadcastable/weights/rank:0\022\236\001loss/dense_loss/categorical_crossentropy/weighted_loss/broadcast_weights/assert_broadcastable/is_valid_shape/has_valid_nonscalar_shape/is_same_rank/Switch_1:0\022\360\001\nvloss/dense_loss/categorical_crossentropy/weighted_loss/broadcast_weights/assert_broadcastable/is_valid_shape/pred_id:0\022vloss/dense_loss/categorical_crossentropy/weighted_loss/broadcast_weights/assert_broadcastable/is_valid_shape/pred_id:02\255-\n\252-\n\220\001loss/dense_loss/categorical_crossentropy/weighted_loss/broadcast_weights/assert_broadcastable/is_valid_shape/has_valid_nonscalar_shape/cond_text\022\220\001loss/dense_loss/categorical_crossentropy/weighted_loss/broadcast_weights/assert_broadcastable/is_valid_shape/has_valid_nonscalar_shape/pred_id:0\032\221\001loss/dense_loss/categorical_crossentropy/weighted_loss/broadcast_weights/assert_broadcastable/is_valid_shape/has_valid_nonscalar_shape/switch_t:0 \001*\353)\n\262\001loss/dense_loss/categorical_crossentropy/weighted_loss/broadcast_weights/assert_broadcastable/is_valid_shape/has_valid_nonscalar_shape/has_invalid_dims/DenseToDenseSetOperation:0\n\262\001loss/dense_loss/categorical_crossentropy/weighted_loss/broadcast_weights/assert_broadcastable/is_valid_shape/has_valid_nonscalar_shape/has_invalid_dims/DenseToDenseSetOperation:1\n\262\001loss/dense_loss/categorical_crossentropy/weighted_loss/broadcast_weights/assert_broadcastable/is_valid_shape/has_valid_nonscalar_shape/has_invalid_dims/DenseToDenseSetOperation:2\n\253\001loss/dense_loss/categorical_crossentropy/weighted_loss/broadcast_weights/assert_broadcastable/is_valid_shape/has_valid_nonscalar_shape/has_invalid_dims/ExpandDims/Switch:0\n\255\001loss/dense_loss/categorical_crossentropy/weighted_loss/broadcast_weights/assert_broadcastable/is_valid_shape/has_valid_nonscalar_shape/has_invalid_dims/ExpandDims/Switch_1:1\n\250\001loss/dense_loss/categorical_crossentropy/weighted_loss/broadcast_weights/assert_broadcastable/is_valid_shape/has_valid_nonscalar_shape/has_invalid_dims/ExpandDims/dim:0\n\244\001loss/dense_loss/categorical_crossentropy/weighted_loss/broadcast_weights/assert_broadcastable/is_valid_shape/has_valid_nonscalar_shape/has_invalid_dims/ExpandDims:0\n\255\001loss/dense_loss/categorical_crossentropy/weighted_loss/broadcast_weights/assert_broadcastable/is_valid_shape/has_valid_nonscalar_shape/has_invalid_dims/ExpandDims_1/Switch:0\n\257\001loss/dense_loss/categorical_crossentropy/weighted_loss/broadcast_weights/assert_broadcastable/is_valid_shape/has_valid_nonscalar_shape/has_invalid_dims/ExpandDims_1/Switch_1:1\n\252\001loss/dense_loss/categorical_crossentropy/weighted_loss/broadcast_weights/assert_broadcastable/is_valid_shape/has_valid_nonscalar_shape/has_invalid_dims/ExpandDims_1/dim:0\n\246\001loss/dense_loss/categorical_crossentropy/weighted_loss/broadcast_weights/assert_broadcastable/is_valid_shape/has_valid_nonscalar_shape/has_invalid_dims/ExpandDims_1:0\n\245\001loss/dense_loss/categorical_crossentropy/weighted_loss/broadcast_weights/assert_broadcastable/is_valid_shape/has_valid_nonscalar_shape/has_invalid_dims/concat/axis:0\n\240\001loss/dense_loss/categorical_crossentropy/weighted_loss/broadcast_weights/assert_broadcastable/is_valid_shape/has_valid_nonscalar_shape/has_invalid_dims/concat:0\n\252\001loss/dense_loss/categorical_crossentropy/weighted_loss/broadcast_weights/assert_broadcastable/is_valid_shape/has_valid_nonscalar_shape/has_invalid_dims/num_invalid_dims:0\n\251\001loss/dense_loss/categorical_crossentropy/weighted_loss/broadcast_weights/assert_broadcastable/is_valid_shape/has_valid_nonscalar_shape/has_invalid_dims/ones_like/Const:0\n\251\001loss/dense_loss/categorical_crossentropy/weighted_loss/broadcast_weights/assert_broadcastable/is_valid_shape/has_valid_nonscalar_shape/has_invalid_dims/ones_like/Shape:0\n\243\001loss/dense_loss/categorical_crossentropy/weighted_loss/broadcast_weights/assert_broadcastable/is_valid_shape/has_valid_nonscalar_shape/has_invalid_dims/ones_like:0\n\233\001loss/dense_loss/categorical_crossentropy/weighted_loss/broadcast_weights/assert_broadcastable/is_valid_shape/has_valid_nonscalar_shape/has_invalid_dims/x:0\n\231\001loss/dense_loss/categorical_crossentropy/weighted_loss/broadcast_weights/assert_broadcastable/is_valid_shape/has_valid_nonscalar_shape/has_invalid_dims:0\n\220\001loss/dense_loss/categorical_crossentropy/weighted_loss/broadcast_weights/assert_broadcastable/is_valid_shape/has_valid_nonscalar_shape/pred_id:0\n\221\001loss/dense_loss/categorical_crossentropy/weighted_loss/broadcast_weights/assert_broadcastable/is_valid_shape/has_valid_nonscalar_shape/switch_t:0\nlloss/dense_loss/categorical_crossentropy/weighted_loss/broadcast_weights/assert_broadcastable/values/shape:0\nmloss/dense_loss/categorical_crossentropy/weighted_loss/broadcast_weights/assert_broadcastable/weights/shape:0\022\241\002\nmloss/dense_loss/categorical_crossentropy/weighted_loss/broadcast_weights/assert_broadcastable/weights/shape:0\022\257\001loss/dense_loss/categorical_crossentropy/weighted_loss/broadcast_weights/assert_broadcastable/is_valid_shape/has_valid_nonscalar_shape/has_invalid_dims/ExpandDims_1/Switch_1:1\022\340\002\n\255\001loss/dense_loss/categorical_crossentropy/weighted_loss/broadcast_weights/assert_broadcastable/is_valid_shape/has_valid_nonscalar_shape/has_invalid_dims/ExpandDims_1/Switch:0\022\255\001loss/dense_loss/categorical_crossentropy/weighted_loss/broadcast_weights/assert_broadcastable/is_valid_shape/has_valid_nonscalar_shape/has_invalid_dims/ExpandDims_1/Switch:0\022\236\002\nlloss/dense_loss/categorical_crossentropy/weighted_loss/broadcast_weights/assert_broadcastable/values/shape:0\022\255\001loss/dense_loss/categorical_crossentropy/weighted_loss/broadcast_weights/assert_broadcastable/is_valid_shape/has_valid_nonscalar_shape/has_invalid_dims/ExpandDims/Switch_1:1\022\334\002\n\253\001loss/dense_loss/categorical_crossentropy/weighted_loss/broadcast_weights/assert_broadcastable/is_valid_shape/has_valid_nonscalar_shape/has_invalid_dims/ExpandDims/Switch:0\022\253\001loss/dense_loss/categorical_crossentropy/weighted_loss/broadcast_weights/assert_broadcastable/is_valid_shape/has_valid_nonscalar_shape/has_invalid_dims/ExpandDims/Switch:0\022\246\002\n\220\001loss/dense_loss/categorical_crossentropy/weighted_loss/broadcast_weights/assert_broadcastable/is_valid_shape/has_valid_nonscalar_shape/pred_id:0\022\220\001loss/dense_loss/categorical_crossentropy/weighted_loss/broadcast_weights/assert_broadcastable/is_valid_shape/has_valid_nonscalar_shape/pred_id:02\201\016\n\376\r\n\222\001loss/dense_loss/categorical_crossentropy/weighted_loss/broadcast_weights/assert_broadcastable/is_valid_shape/has_valid_nonscalar_shape/cond_text_1\022\220\001loss/dense_loss/categorical_crossentropy/weighted_loss/broadcast_weights/assert_broadcastable/is_valid_shape/has_valid_nonscalar_shape/pred_id:0\032\221\001loss/dense_loss/categorical_crossentropy/weighted_loss/broadcast_weights/assert_broadcastable/is_valid_shape/has_valid_nonscalar_shape/switch_f:0*\277\n\n\221\001loss/dense_loss/categorical_crossentropy/weighted_loss/broadcast_weights/assert_broadcastable/is_valid_shape/has_valid_nonscalar_shape/Switch_1:0\n\221\001loss/dense_loss/categorical_crossentropy/weighted_loss/broadcast_weights/assert_broadcastable/is_valid_shape/has_valid_nonscalar_shape/Switch_1:1\n\225\001loss/dense_loss/categorical_crossentropy/weighted_loss/broadcast_weights/assert_broadcastable/is_valid_shape/has_valid_nonscalar_shape/is_same_rank:0\n\220\001loss/dense_loss/categorical_crossentropy/weighted_loss/broadcast_weights/assert_broadcastable/is_valid_shape/has_valid_nonscalar_shape/pred_id:0\n\221\001loss/dense_loss/categorical_crossentropy/weighted_loss/broadcast_weights/assert_broadcastable/is_valid_shape/has_valid_nonscalar_shape/switch_f:0\022\246\002\n\220\001loss/dense_loss/categorical_crossentropy/weighted_loss/broadcast_weights/assert_broadcastable/is_valid_shape/has_valid_nonscalar_shape/pred_id:0\022\220\001loss/dense_loss/categorical_crossentropy/weighted_loss/broadcast_weights/assert_broadcastable/is_valid_shape/has_valid_nonscalar_shape/pred_id:0\022\254\002\n\225\001loss/dense_loss/categorical_crossentropy/weighted_loss/broadcast_weights/assert_broadcastable/is_valid_shape/has_valid_nonscalar_shape/is_same_rank:0\022\221\001loss/dense_loss/categorical_crossentropy/weighted_loss/broadcast_weights/assert_broadcastable/is_valid_shape/has_valid_nonscalar_shape/Switch_1:0"
        value: "\nsloss/dense_loss/categorical_crossentropy/weighted_loss/broadcast_weights/assert_broadcastable/AssertGuard/cond_text\022sloss/dense_loss/categorical_crossentropy/weighted_loss/broadcast_weights/assert_broadcastable/AssertGuard/pred_id:0\032tloss/dense_loss/categorical_crossentropy/weighted_loss/broadcast_weights/assert_broadcastable/AssertGuard/switch_t:0 \001*\330\004\n~loss/dense_loss/categorical_crossentropy/weighted_loss/broadcast_weights/assert_broadcastable/AssertGuard/control_dependency:0\nsloss/dense_loss/categorical_crossentropy/weighted_loss/broadcast_weights/assert_broadcastable/AssertGuard/pred_id:0\ntloss/dense_loss/categorical_crossentropy/weighted_loss/broadcast_weights/assert_broadcastable/AssertGuard/switch_t:0\022\352\001\nsloss/dense_loss/categorical_crossentropy/weighted_loss/broadcast_weights/assert_broadcastable/AssertGuard/pred_id:0\022sloss/dense_loss/categorical_crossentropy/weighted_loss/broadcast_weights/assert_broadcastable/AssertGuard/pred_id:0"
        value: "\nuloss/dense_loss/categorical_crossentropy/weighted_loss/broadcast_weights/assert_broadcastable/AssertGuard/cond_text_1\022sloss/dense_loss/categorical_crossentropy/weighted_loss/broadcast_weights/assert_broadcastable/AssertGuard/pred_id:0\032tloss/dense_loss/categorical_crossentropy/weighted_loss/broadcast_weights/assert_broadcastable/AssertGuard/switch_f:0*\251\031\nyloss/dense_loss/categorical_crossentropy/weighted_loss/broadcast_weights/assert_broadcastable/AssertGuard/Assert/Switch:0\n{loss/dense_loss/categorical_crossentropy/weighted_loss/broadcast_weights/assert_broadcastable/AssertGuard/Assert/Switch_1:0\n{loss/dense_loss/categorical_crossentropy/weighted_loss/broadcast_weights/assert_broadcastable/AssertGuard/Assert/Switch_2:0\n{loss/dense_loss/categorical_crossentropy/weighted_loss/broadcast_weights/assert_broadcastable/AssertGuard/Assert/Switch_3:0\nyloss/dense_loss/categorical_crossentropy/weighted_loss/broadcast_weights/assert_broadcastable/AssertGuard/Assert/data_0:0\nyloss/dense_loss/categorical_crossentropy/weighted_loss/broadcast_weights/assert_broadcastable/AssertGuard/Assert/data_1:0\nyloss/dense_loss/categorical_crossentropy/weighted_loss/broadcast_weights/assert_broadcastable/AssertGuard/Assert/data_2:0\nyloss/dense_loss/categorical_crossentropy/weighted_loss/broadcast_weights/assert_broadcastable/AssertGuard/Assert/data_4:0\nyloss/dense_loss/categorical_crossentropy/weighted_loss/broadcast_weights/assert_broadcastable/AssertGuard/Assert/data_5:0\nyloss/dense_loss/categorical_crossentropy/weighted_loss/broadcast_weights/assert_broadcastable/AssertGuard/Assert/data_7:0\n\200\001loss/dense_loss/categorical_crossentropy/weighted_loss/broadcast_weights/assert_broadcastable/AssertGuard/control_dependency_1:0\nsloss/dense_loss/categorical_crossentropy/weighted_loss/broadcast_weights/assert_broadcastable/AssertGuard/pred_id:0\ntloss/dense_loss/categorical_crossentropy/weighted_loss/broadcast_weights/assert_broadcastable/AssertGuard/switch_f:0\niloss/dense_loss/categorical_crossentropy/weighted_loss/broadcast_weights/assert_broadcastable/is_scalar:0\ntloss/dense_loss/categorical_crossentropy/weighted_loss/broadcast_weights/assert_broadcastable/is_valid_shape/Merge:0\nlloss/dense_loss/categorical_crossentropy/weighted_loss/broadcast_weights/assert_broadcastable/values/shape:0\nmloss/dense_loss/categorical_crossentropy/weighted_loss/broadcast_weights/assert_broadcastable/weights/shape:0\022\352\001\nsloss/dense_loss/categorical_crossentropy/weighted_loss/broadcast_weights/assert_broadcastable/AssertGuard/pred_id:0\022sloss/dense_loss/categorical_crossentropy/weighted_loss/broadcast_weights/assert_broadcastable/AssertGuard/pred_id:0\022\354\001\nmloss/dense_loss/categorical_crossentropy/weighted_loss/broadcast_weights/assert_broadcastable/weights/shape:0\022{loss/dense_loss/categorical_crossentropy/weighted_loss/broadcast_weights/assert_broadcastable/AssertGuard/Assert/Switch_1:0\022\353\001\nlloss/dense_loss/categorical_crossentropy/weighted_loss/broadcast_weights/assert_broadcastable/values/shape:0\022{loss/dense_loss/categorical_crossentropy/weighted_loss/broadcast_weights/assert_broadcastable/AssertGuard/Assert/Switch_2:0\022\350\001\niloss/dense_loss/categorical_crossentropy/weighted_loss/broadcast_weights/assert_broadcastable/is_scalar:0\022{loss/dense_loss/categorical_crossentropy/weighted_loss/broadcast_weights/assert_broadcastable/AssertGuard/Assert/Switch_3:0\022\361\001\ntloss/dense_loss/categorical_crossentropy/weighted_loss/broadcast_weights/assert_broadcastable/is_valid_shape/Merge:0\022yloss/dense_loss/categorical_crossentropy/weighted_loss/broadcast_weights/assert_broadcastable/AssertGuard/Assert/Switch:0"
      }
    }
  }
  collection_def {
    key: "trainable_variables"
    value {
      bytes_list {
        value: "\n\017conv2d/kernel:0\022\024conv2d/kernel/Assign\032#conv2d/kernel/Read/ReadVariableOp:0(\0012*conv2d/kernel/Initializer/random_uniform:08\001"
        value: "\n\rconv2d/bias:0\022\022conv2d/bias/Assign\032!conv2d/bias/Read/ReadVariableOp:0(\0012\037conv2d/bias/Initializer/zeros:08\001"
        value: "\n\021conv2d_1/kernel:0\022\026conv2d_1/kernel/Assign\032%conv2d_1/kernel/Read/ReadVariableOp:0(\0012,conv2d_1/kernel/Initializer/random_uniform:08\001"
        value: "\n\017conv2d_1/bias:0\022\024conv2d_1/bias/Assign\032#conv2d_1/bias/Read/ReadVariableOp:0(\0012!conv2d_1/bias/Initializer/zeros:08\001"
        value: "\n\016dense/kernel:0\022\023dense/kernel/Assign\032\"dense/kernel/Read/ReadVariableOp:0(\0012)dense/kernel/Initializer/random_uniform:08\001"
        value: "\n\014dense/bias:0\022\021dense/bias/Assign\032 dense/bias/Read/ReadVariableOp:0(\0012\036dense/bias/Initializer/zeros:08\001"
      }
    }
  }
  collection_def {
    key: "variables"
    value {
      bytes_list {
        value: "\n\017conv2d/kernel:0\022\024conv2d/kernel/Assign\032#conv2d/kernel/Read/ReadVariableOp:0(\0012*conv2d/kernel/Initializer/random_uniform:08\001"
        value: "\n\rconv2d/bias:0\022\022conv2d/bias/Assign\032!conv2d/bias/Read/ReadVariableOp:0(\0012\037conv2d/bias/Initializer/zeros:08\001"
        value: "\n\021conv2d_1/kernel:0\022\026conv2d_1/kernel/Assign\032%conv2d_1/kernel/Read/ReadVariableOp:0(\0012,conv2d_1/kernel/Initializer/random_uniform:08\001"
        value: "\n\017conv2d_1/bias:0\022\024conv2d_1/bias/Assign\032#conv2d_1/bias/Read/ReadVariableOp:0(\0012!conv2d_1/bias/Initializer/zeros:08\001"
        value: "\n\016dense/kernel:0\022\023dense/kernel/Assign\032\"dense/kernel/Read/ReadVariableOp:0(\0012)dense/kernel/Initializer/random_uniform:08\001"
        value: "\n\014dense/bias:0\022\021dense/bias/Assign\032 dense/bias/Read/ReadVariableOp:0(\0012\036dense/bias/Initializer/zeros:08\001"
        value: "\n\024training/Adam/iter:0\022\031training/Adam/iter/Assign\032(training/Adam/iter/Read/ReadVariableOp:0(\0012&training/Adam/iter/Initializer/zeros:0"
        value: "\n\026training/Adam/beta_1:0\022\033training/Adam/beta_1/Assign\032*training/Adam/beta_1/Read/ReadVariableOp:0(\00120training/Adam/beta_1/Initializer/initial_value:0"
        value: "\n\026training/Adam/beta_2:0\022\033training/Adam/beta_2/Assign\032*training/Adam/beta_2/Read/ReadVariableOp:0(\00120training/Adam/beta_2/Initializer/initial_value:0"
        value: "\n\025training/Adam/decay:0\022\032training/Adam/decay/Assign\032)training/Adam/decay/Read/ReadVariableOp:0(\0012/training/Adam/decay/Initializer/initial_value:0"
        value: "\n\027training/Adam/epsilon:0\022\034training/Adam/epsilon/Assign\032+training/Adam/epsilon/Read/ReadVariableOp:0(\00121training/Adam/epsilon/Initializer/initial_value:0"
        value: "\n\035training/Adam/learning_rate:0\022\"training/Adam/learning_rate/Assign\0321training/Adam/learning_rate/Read/ReadVariableOp:0(\00127training/Adam/learning_rate/Initializer/initial_value:0"
        value: "\n\037training/Adam/conv2d/kernel/m:0\022$training/Adam/conv2d/kernel/m/Assign\0323training/Adam/conv2d/kernel/m/Read/ReadVariableOp:0(\00121training/Adam/conv2d/kernel/m/Initializer/zeros:0"
        value: "\n\035training/Adam/conv2d/bias/m:0\022\"training/Adam/conv2d/bias/m/Assign\0321training/Adam/conv2d/bias/m/Read/ReadVariableOp:0(\0012/training/Adam/conv2d/bias/m/Initializer/zeros:0"
        value: "\n!training/Adam/conv2d_1/kernel/m:0\022&training/Adam/conv2d_1/kernel/m/Assign\0325training/Adam/conv2d_1/kernel/m/Read/ReadVariableOp:0(\00123training/Adam/conv2d_1/kernel/m/Initializer/zeros:0"
        value: "\n\037training/Adam/conv2d_1/bias/m:0\022$training/Adam/conv2d_1/bias/m/Assign\0323training/Adam/conv2d_1/bias/m/Read/ReadVariableOp:0(\00121training/Adam/conv2d_1/bias/m/Initializer/zeros:0"
        value: "\n\036training/Adam/dense/kernel/m:0\022#training/Adam/dense/kernel/m/Assign\0322training/Adam/dense/kernel/m/Read/ReadVariableOp:0(\00120training/Adam/dense/kernel/m/Initializer/zeros:0"
        value: "\n\034training/Adam/dense/bias/m:0\022!training/Adam/dense/bias/m/Assign\0320training/Adam/dense/bias/m/Read/ReadVariableOp:0(\0012.training/Adam/dense/bias/m/Initializer/zeros:0"
        value: "\n\037training/Adam/conv2d/kernel/v:0\022$training/Adam/conv2d/kernel/v/Assign\0323training/Adam/conv2d/kernel/v/Read/ReadVariableOp:0(\00121training/Adam/conv2d/kernel/v/Initializer/zeros:0"
        value: "\n\035training/Adam/conv2d/bias/v:0\022\"training/Adam/conv2d/bias/v/Assign\0321training/Adam/conv2d/bias/v/Read/ReadVariableOp:0(\0012/training/Adam/conv2d/bias/v/Initializer/zeros:0"
        value: "\n!training/Adam/conv2d_1/kernel/v:0\022&training/Adam/conv2d_1/kernel/v/Assign\0325training/Adam/conv2d_1/kernel/v/Read/ReadVariableOp:0(\00123training/Adam/conv2d_1/kernel/v/Initializer/zeros:0"
        value: "\n\037training/Adam/conv2d_1/bias/v:0\022$training/Adam/conv2d_1/bias/v/Assign\0323training/Adam/conv2d_1/bias/v/Read/ReadVariableOp:0(\00121training/Adam/conv2d_1/bias/v/Initializer/zeros:0"
        value: "\n\036training/Adam/dense/kernel/v:0\022#training/Adam/dense/kernel/v/Assign\0322training/Adam/dense/kernel/v/Read/ReadVariableOp:0(\00120training/Adam/dense/kernel/v/Initializer/zeros:0"
        value: "\n\034training/Adam/dense/bias/v:0\022!training/Adam/dense/bias/v/Assign\0320training/Adam/dense/bias/v/Read/ReadVariableOp:0(\0012.training/Adam/dense/bias/v/Initializer/zeros:0"
      }
    }
  }
  signature_def {
    key: "predict"
    value {
      inputs {
        key: "input_1:0"
        value {
          name: "input_1:0"
          dtype: DT_FLOAT
          tensor_shape {
            dim {
              size: -1
            }
            dim {
              size: 28
            }
            dim {
              size: 28
            }
            dim {
              size: 1
            }
          }
        }
      }
      outputs {
        key: "dense/Softmax:0"
        value {
          name: "dense/Softmax:0"
          dtype: DT_FLOAT
          tensor_shape {
            dim {
              size: -1
            }
            dim {
              size: 10
            }
          }
        }
      }
      method_name: "tensorflow/serving/predict"
    }
  }
}
